ex1_303166318_307955872/models/Lenet5 Original.pkl (torch, 250023 bytes, 10 tensors)

C1.weight f4 [6, 1, 5, 5]
000000 de 03 ba bf bd fb 5a 3f 28 56 1a 3f ce 44 2a bf
       -1.453243 0.8554037 0.60287714 -0.6651124
000010 b4 86 7c bf c7 28 c7 bf 61 1b d5 3f a6 49 cd 3f
       -0.9864304 -1.5559319 1.664898 1.6038101
000020 ac 0e c0 be 6c ab 0d bf a0 fa ae bf c1 38 b1 3f
       -0.37511194 -0.55339694 -1.3670235 1.3845445
000030 c2 e7 b6 3f ee 6d 05 3e e6 2d 08 be a9 d9 60 bf
       1.4289477 0.13030216 -0.13298759 -0.87832123
000040 49 9f 72 3f 0a 1a ba 3e 98 42 52 3f e7 9f cd 3e
       0.947743 0.3634799 0.82132864 0.40161058
000050 f3 72 3c bf 20 6b d3 3e f6 98 10 bf 3c 95 e8 be
       -0.736129 0.41292667 -0.564834 -0.45426357
000060 25 78 f8 3d 9b 15 59 bf 59 ae c0 bf 41 f8 84 3f
       0.12132291 -0.8479859 -1.5053207 1.0388261
000070 b9 36 36 3f 67 99 d5 3e a0 94 ce bd 27 93 29 be
       0.7117725 0.417186 -0.10086942 -0.1656004
000080 63 57 9c 3f f1 9b 77 3d 66 61 7e 3f 8f ab 08 3e
       1.2214168 0.06045145 0.9936737 0.13346694
000090 0d 94 c9 3f 61 29 13 40 15 b0 65 bf a5 32 ae bf
       1.5748307 2.2994006 -0.89721805 -1.3609205
0000a0 46 e6 4c 3e 70 b1 e9 3f 50 32 c2 3f 52 d9 55 c0
       0.20009717 1.8257275 1.5171604 -3.3413892
0000b0 90 58 02 c0 4a 6d 95 3d 48 86 e8 3e 29 55 c8 3e
       -2.0366554 0.07296236 0.45414948 0.39127472
0000c0 ee c6 4e c0 44 f8 2f 3f 24 f6 53 3f be e2 39 3e
       -3.2308917 0.687382 0.82797456 0.18152902
0000d0 ec 3c a0 3d 6d fa 33 be 06 bb 0e bd 6c 24 ca bf
       0.0782412 -0.17575999 -0.03484633 -1.5792365
0000e0 43 f9 b5 bf 9d be 73 bf 08 27 39 bf a6 a7 e4 3e
       -1.4216694 -0.9521273 -0.7232518 0.44659156
0000f0 71 24 8c bf fa a7 8d 3e b1 41 1e 3f 08 f6 af 3e
       -1.0948621 0.27667218 0.6181899 0.34367394
000100 e8 d4 2f 3f eb 81 83 3e 4f 3f 9a 3f 1d 8e 69 3f
       0.68684244 0.25685057 1.205057 0.9123247
000110 e0 88 32 3f e3 76 67 3f b5 9b 48 be f3 c6 94 bd
       0.69740105 0.9041578 -0.19590648 -0.07264509
000120 5b 7e 13 bd 49 68 17 3e 6a b0 32 3f bf f0 08 bf
       -0.036009174 0.14785875 0.69800436 -0.5349235
000130 3e 79 53 bf ac ac 9f bf 35 5d a8 bf b0 52 a3 bf
       -0.82606876 -1.247457 -1.3153445 -1.2759609
000140 bd 91 bf be cc 5e 24 bf 5e 75 b9 bf 33 21 e7 bf
       -0.37415877 -0.6420715 -1.4488943 -1.8057007
000150 68 77 cf bf 68 47 8d 3e 1b 2e 0d 3f 80 3d 8a 3e
       -1.6208315 0.2759354 0.55148476 0.27000046
000160 13 2b 97 bf 9d 98 34 bf 65 6f 8d be fc 91 12 3f
       -1.181002 -0.7054537 -0.2762405 0.57254004
000170 0a 11 50 3f d7 2c a2 3d 5d bc 23 3b e7 75 d4 3e
       0.81276 0.07918709 0.00249841 0.41496202
000180 3e dd 1d 3f 46 71 5c 3e ea 28 4a bf 55 09 ef be
       0.61665714 0.21527585 -0.7896868 -0.46686807
000190 98 f2 e9 3e 35 46 e9 3e 74 25 a0 bd 5f 31 c2 bd
       0.45692897 0.45561376 -0.078196436 -0.09482073
0001a0 e5 76 0d bf ac e5 66 3f 2b f3 12 3f 28 9c 81 3e
       -0.55259544 0.901942 0.57402295 0.2531445
0001b0 f1 73 fb bb 36 9b 14 bf 91 5a 97 be 98 be 24 bf
       -0.0076737334 -0.58049333 -0.29561284 -0.64353323
0001c0 59 36 03 bf 8b 85 a0 bf dc 93 06 bf 9e 4c 6f bf
       -0.512548 -1.2540754 -0.52569366 -0.93476284
0001d0 78 1a 5c bf 73 9d 82 bf 52 1b 1c bf 9b 93 0d 3f
       -0.8597789 -1.02043 -0.6097919 0.55303353
0001e0 03 41 ca be 62 72 1e bf f6 e1 11 bf 4c 9c 00 be
       -0.39502725 -0.61893284 -0.56985414 -0.12559623
0001f0 9b 72 7e 3f 8c 0d 93 3f b2 b3 b3 3d 65 15 c0 bf
       0.99393624 1.1488509 0.087745085 -1.5006529
000200 eb 32 c1 bf 21 4d 15 bf bf 52 37 3e 47 ec 88 bc
       -1.5093664 -0.58320814 0.17902659 -0.016714228
000210 eb f3 46 c0 3b 1a 4a c0 c1 d2 f2 bf dd a7 7b 3f
       -3.1086376 -3.157851 -1.8970567 0.98303014
000220 b4 9d 49 3f ca 34 ab bf f8 7e 34 c0 8d 65 7f bf
       0.7875626 -1.3375485 -2.8202496 -0.9976433
000230 bf dc 7e be ba 72 42 3f 7f ab 16 3f 58 e6 50 be
       -0.24888895 0.7595631 0.5885543 -0.20400369
000240 5d 03 13 be 29 ac 09 bf bf 29 0b 3f ea f2 70 3f
       -0.14356752 -0.5377832 0.54360574 0.9412066
000250 ec db 03 3e 47 b5 5e 3f
       0.12876862 0.8699536

C1.bias f4 [6]
000000 42 77 19 bf 0c 4d 78 be 57 96 dd bf f6 16 5e 3f
       -0.599476 -0.24248141 -1.7311505 0.86753786
000010 0f df f4 3e a0 06 0b 3f
       0.4782643 0.54306984

C3.weight f4 [16, 6, 5, 5]
000000 0f aa 17 3e a0 fd 71 be f1 60 09 bf 9d 92 01 bf
       0.14810966 -0.23631907 -0.53663546 -0.5061434
000010 ef 8e 8d be 86 7b 68 3f 41 7d 0b 3f 95 a8 70 be
       -0.27648112 0.9081348 0.54488 -0.23501809
000020 b2 6e 44 be 90 ae d1 3e 57 41 a6 3e 3c 7a 8c 3e
       -0.19182852 0.40953493 0.32471725 0.27437007
000030 af 2c 97 bd c9 d0 e8 bd 17 37 72 3e de 81 ea be
       -0.073815696 -0.113679476 0.23653828 -0.45802206
000040 62 53 26 bf 56 bc 20 bf e6 a7 7e 3c c7 25 0d bf
       -0.6497098 -0.6278738 0.01554296 -0.5513577
000050 8c 4a 00 bf ec 8e 07 bf 72 96 06 bf f5 fb ea 3e
       -0.5011375 -0.52952456 -0.5257331 0.45895353
000060 47 e7 e9 be ba ca 7a be 83 ff cb be de 9c 24 bf
       -0.45684263 -0.24491397 -0.39843377 -0.6430186
000070 a7 3b 26 bf b1 2d 89 3e b0 66 1b 3e f0 2c 45 bd
       -0.6493477 0.26792672 0.15175891 -0.04813856
000080 7f aa 42 3e 48 3e 27 be eb a7 3a 3f de 8e 17 3e
       0.19010352 -0.16332352 0.7291247 0.14800593
000090 94 65 3c 3e f1 c4 d6 3e 32 53 0b 3f ce b0 6b 3f
       0.18398124 0.4194713 0.5442382 0.9206666
0000a0 64 97 28 be 10 ae d0 3d 90 f4 05 be f5 6b b6 3e
       -0.16464001 0.1018945 -0.13081574 0.3562924
0000b0 6c 92 65 3e 93 be 18 bf 74 7d 16 bf 25 1c 56 bf
       0.22419137 -0.59665793 -0.58785176 -0.83636695
0000c0 04 93 3a 3e 55 82 86 bf e1 3f 46 3e 45 33 42 3e
       0.18220145 -1.0508524 0.19360305 0.1896487
0000d0 16 cc 73 bd 5d 1c 2e be 04 48 9c 3d 4d b4 d1 3d
       -0.059520803 -0.17003007 0.076309234 0.10239468
0000e0 ca 88 db bc c3 10 df bd d4 e3 7c bd 41 fd 11 3e
       -0.026798625 -0.10891869 -0.06174071 0.14256765
0000f0 02 c7 83 be bf f6 90 be 2f da 49 be e1 c1 0f 3d
       -0.25737768 -0.28313252 -0.19712137 0.035097007
000100 dd a3 eb 3b 47 5b b9 be 36 2f 67 be 84 19 87 be
       0.007191165 -0.36202452 -0.22576603 -0.26386654
000110 be 8d 91 be 8e 9e d3 bd 91 08 19 bd 28 03 ab bd
       -0.28428453 -0.10332976 -0.037361685 -0.083502114
000120 70 6d 9b bb f8 bf 80 3d 40 ea 75 3e 45 74 c3 bb
       -0.0047432706 0.06286615 0.2401514 -0.005964788
000130 26 5b bb bb 50 e5 d8 3c 6d 62 c7 3d 9a bf 1f 3e
       -0.005717653 0.026476532 0.0973557 0.15600434
000140 8b 98 84 3e cf 32 9a 3d 43 fb c0 3c 4a 65 b0 bd
       0.2589763 0.07529222 0.02355731 -0.08613069
000150 8a e3 4a be 08 cf f4 3d af 43 5f bd 3d 30 cc bd
       -0.19813362 0.119535506 -0.054507907 -0.09970138
000160 6d f5 99 bd f2 e9 27 be f5 11 d1 3a 0a 64 ea 3c
       -0.075175144 -0.16397837 0.0015950786 0.028612155
000170 ac 47 fc bd cf 28 e0 bd 9d 2f 1d be 34 33 c4 bd
       -0.12318358 -0.109452836 -0.15350194 -0.09580079
000180 2f 4c 07 be 03 dc 8e be 19 99 b5 be 41 23 6f be
       -0.13212655 -0.2790223 -0.35468367 -0.23353292
000190 27 4f 39 3d f4 b3 f0 3b 2f 34 34 3e fd 63 31 3d
       0.0452415 0.007345671 0.17598031 0.043308247
0001a0 8a 40 02 3d 48 36 71 3d 53 73 bb 3d 4c 8b d9 3d
       0.03179983 0.058889657 0.09152856 0.10622272
0001b0 4c f5 93 bd 96 31 85 3c 63 10 8d 3d c4 c9 a4 3d
       -0.07224521 0.016258996 0.06887891 0.08046296
0001c0 80 79 39 3d 1b 03 11 bc a3 25 f1 3a 74 f2 85 bd
       0.045281887 -0.008850838 0.0018398057 -0.06540385
0001d0 a3 73 a8 bd 03 f3 2a bd 4d 95 fa bd aa 0d d1 bd
       -0.08225181 -0.04173566 -0.12235508 -0.10207684
0001e0 1c 9c 2d bd b3 14 df bc 38 ca 8c 3d 33 29 05 be
       -0.042385206 -0.02723155 0.06874508 -0.13003998
0001f0 33 f7 76 be f4 0d 9a 3d f7 a8 90 3d 09 0b f7 bc
       -0.24117737 0.075221926 0.070634775 -0.03015663
000200 48 5e 92 bc 07 b4 b3 3e ef 66 2e 3e c4 69 e3 3d
       -0.017867222 0.35098287 0.17031454 0.111041576
000210 ed 5e 1d be 89 ef 5e 3d 89 bc ed bd 83 2e cc bc
       -0.15368243 0.054427657 -0.11608226 -0.024924522
000220 83 11 36 be b0 35 13 be 8c 5b 9c be 63 d6 a0 be
       -0.17780118 -0.14375949 -0.30538595 -0.31413564
000230 4d fc fd bd 7f 1e a1 be 69 3c aa be c6 ac d8 be
       -0.12401638 -0.3146858 -0.33249214 -0.42319316
000240 f3 8c a8 be 5c 38 86 be f3 c5 d3 be 56 55 e1 be
       -0.32920036 -0.26214874 -0.4136196 -0.4401042
000250 14 eb 18 bf e2 c5 de bd 43 01 40 3e b1 ac 12 3e
       -0.597337 -0.10877587 0.18750481 0.14323689
000260 8c 38 f6 be 64 4d e1 3e e0 14 88 be 39 fa 95 be
       -0.48090017 0.44004357 -0.26578426 -0.29292467
000270 12 89 8a be 13 f7 f9 be 25 04 a5 be bf 3f b2 3e
       -0.270577 -0.48821315 -0.32229725 0.3481426
000280 4f 71 d3 be e7 df a8 bd 0e e0 bb ba cd 60 c1 be
       -0.41297385 -0.08245831 -0.0014333741 -0.37769166
000290 52 83 99 3e f3 99 f6 bd b4 a3 a7 3d f4 17 b1 bc
       0.29983002 -0.12041082 0.08185521 -0.021617867
0002a0 db bb 46 3e 37 da 24 3f ed fb 10 3f a1 fe 0c bd
       0.19407599 0.6439547 0.5663441 -0.03442252
0002b0 5d 23 e9 be 06 a3 cc bd d3 1c dd bd 1e 6c 37 bf
       -0.45534793 -0.09992032 -0.107965134 -0.7164935
0002c0 20 61 55 bf f8 a7 f0 be db 38 b7 be ea d0 d5 bd
       -0.83351326 -0.4700315 -0.35785565 -0.10440238
0002d0 a7 e7 67 bf 7c f3 70 bf bb 0a db be 52 ce 85 bf
       -0.9058785 -0.9412153 -0.42781624 -1.0453589
0002e0 9a 98 08 bf 16 75 bc bd 83 55 a3 be bd 79 39 be
       -0.5335785 -0.0920202 -0.31901178 -0.18112846
0002f0 e3 51 72 bf 91 41 b7 3e e9 92 27 3f 52 56 64 3f
       -0.946562 0.3579221 0.6545854 0.89194214
000300 5f 04 0a 3e 89 8e 50 bf b1 f5 d7 be e5 5a c7 3f
       0.1347823 -0.8146749 -0.42179635 1.5574614
000310 ff f0 c9 3f ff 1a 47 3f df 40 bb 3d 0e c2 7d bf
       1.5776671 0.7777557 0.091432326 -0.9912423
000320 cc 74 8d 3e b4 21 80 3e 0c 74 9a 3e c5 60 3c 3d
       0.2762817 0.25025713 0.30166662 0.045990724
000330 f1 c2 a8 be b9 ed 05 bf 55 93 fe bd 99 99 cd 3d
       -0.32961228 -0.5231586 -0.12430445 0.10039062
000340 ec b5 c3 bc 1b 02 77 be 33 13 df be 83 ab bc 3d
       -0.023890458 -0.24121897 -0.43569335 0.09212401
000350 c5 1c fb bd e0 57 06 be ff ad 3d be ab 64 88 3d
       -0.12261347 -0.13119459 -0.18523405 0.06659826
000360 a1 1f 43 3e 71 d2 06 3e 4b dc c7 3d d6 c8 af 3b
       0.19055034 0.13166215 0.097588144 0.0053645177
000370 f3 67 c6 be 44 2d d3 bd 20 11 48 3e 56 2c 53 bd
       -0.38751182 -0.10311368 0.19537783 -0.051555954
000380 25 d9 e5 bd de d8 af 3e b3 15 51 3e d1 83 29 3e
       -0.11223058 0.34345144 0.20418434 0.1655419
000390 68 bb 70 3e b3 4e 18 3e 5c 89 9f be 69 04 1e be
       0.2350899 0.14873771 -0.31159484 -0.1543137
0003a0 0a 9c f2 3d af 42 5c bd 8b ad 63 3d 32 1f 4b be
       0.11846168 -0.053774532 0.055585425 -0.19836119
0003b0 ea ef fe bd 63 a7 bc bd 61 61 c7 bd c5 09 6d 3d
       -0.12448104 -0.09211614 -0.097353704 0.057870645
0003c0 63 d2 4b bc ad 97 d8 bd ce 45 f2 bd 1b 21 32 be
       -0.012440297 -0.10575805 -0.118297204 -0.17395441
0003d0 3d d0 40 bd a0 a8 9f bc 8b 39 04 3e 04 fe 15 be
       -0.04707359 -0.019489586 0.12912576 -0.1464768
0003e0 e7 b5 a2 bd 4a f0 a3 3c e0 40 97 be 84 68 05 3d
       -0.07944851 0.02001204 -0.29541683 0.032570377
0003f0 6a b6 b6 bd e7 a1 01 3b fb d3 86 3d 37 96 d6 3c
       -0.089215115 0.001978034 0.06583401 0.026194675

C3.bias f4 [16]
000000 4f 16 a6 3d aa 22 58 3b 21 07 77 3e 23 79 07 3e
       0.08109724 0.0032979646 0.24123813 0.13229804
000010 f8 96 9f 3c cd dd b8 bd 40 66 09 3f f8 e5 29 3f
       0.019481167 -0.0902668 0.53671646 0.6636653
000020 71 dd 32 3e 57 ee e8 bf 40 e0 d8 3f 83 7c 90 be
       0.17467286 -1.8197736 1.6943436 -0.28219995
000030 c3 80 5f 3f 8a 93 93 be 00 c6 19 bd 1b 00 0f 3e
       0.8730585 -0.288235 -0.037542343 0.13964884

S5.weight f4 [120, 400]
000000 a0 19 14 be bb b7 1a be 28 de 8d 3d 1a fc 8a 3d
       -0.144629 -0.1510915 0.069271386 0.06786366
000010 39 55 37 bd e6 f8 f8 bd 0f 55 29 3d 40 e8 fa bb
       -0.04475901 -0.121568486 0.041340884 -0.007657081
000020 ed 83 fb 3d 22 e9 92 bd 1e 37 c3 bd ef aa 46 bd
       0.12281022 -0.07173373 -0.09531997 -0.04850286
000030 77 94 d4 3d 97 59 87 3d a5 0f d3 3d 53 2d 19 3d
       0.1037988 0.06608885 0.10305718 0.03739674
000040 ed 4d 88 3d f5 e3 58 bd b2 7d 54 3c 61 06 a7 3c
       0.06655488 -0.05295177 0.012969421 0.020388784
000050 a5 e2 69 3d 19 f0 d1 3d fa 0a 3b be b7 91 51 3d
       0.05710091 0.10250873 -0.18265906 0.051164355
000060 d0 55 4e 3d 38 14 49 3d 7f 1f a1 bc e0 d5 3c 3e
       0.050374806 0.049091548 -0.019668339 0.18440962
000070 cf ab 33 3e 31 47 a6 bd a1 d3 7a 3c f7 05 f4 bd
       0.17546009 -0.081190474 0.015309245 -0.119152
000080 a2 cb b3 bd df 36 36 be 89 69 c4 bd 71 29 4e 3e
       -0.08779074 -0.17794369 -0.09590442 0.20132996
000090 f9 31 6d 3d 03 e9 ab bc 15 fa a7 bc a8 a5 4c be
       0.057908986 -0.020985132 -0.02050499 -0.19985068
0000a0 50 6f 9c 3d a7 df e3 3d 89 cb 81 3e e7 e0 d7 3d
       0.07638419 0.11126643 0.25350598 0.105409436
0000b0 c5 88 af be 69 d1 ee 3d 17 5d d2 3d 3d 08 17 bd
       -0.34284034 0.116610356 0.10271662 -0.03687309
0000c0 a7 bb 83 bd c8 5c e3 bd eb 8e 85 bc 04 30 1b bd
       -0.06432276 -0.11101681 -0.0163035 -0.03788759
0000d0 5a c6 d0 bd 71 2b a7 3d 37 e7 11 3e bc d8 83 3b
       -0.101940826 0.08162583 0.14248358 0.0040236395
0000e0 d6 8b 83 3d 5f c4 32 bc 13 06 07 3c a2 c8 3d bd
       0.06423156 -0.010911076 0.008241194 -0.046333916
0000f0 e4 de 28 3c f5 f7 54 3e df 21 cc bd 05 43 aa 3d
       0.0103070475 0.20797713 -0.09967398 0.08313564
000100 3e 00 2f bd 27 40 14 be 73 09 fc 3d 5c 27 0d 3d
       -0.04272484 -0.14477597 0.1230649 0.034461364
000110 91 38 4e be 60 69 64 bd ce 61 99 be 38 f4 4b bd
       -0.20138766 -0.055764556 -0.29957432 -0.049793452
000120 b5 0d 99 3c f0 af c3 be 4e bb 9b bd 4d 53 a0 be
       0.018683294 -0.38220167 -0.07604085 -0.31313553
000130 75 88 42 be 7d ba b4 bd 3d dc 8e bd ab 38 02 3e
       -0.18997367 -0.08824632 -0.06975601 0.1271693
000140 d5 22 95 3d 2e ec 9c bd fb fb 71 3e b9 93 fe bc
       0.07282034 -0.07662235 0.23631279 -0.031076299
000150 2a d6 87 bd c6 1f 99 3d 1e 69 35 bd 8d ef d9 3d
       -0.066326454 0.074767634 -0.0442897 0.10641394
000160 56 91 7b bd d0 67 55 bc 30 ec ae bd 4c 29 91 bd
       -0.0614179 -0.013025239 -0.08541143 -0.07087955
000170 ca ae 21 3e a2 f6 f4 bd 43 81 75 3d 54 09 0a 3e
       0.15789333 -0.11961104 0.059937727 0.13480121
000180 38 a3 59 be 83 8d 06 3e a6 8b 26 bd dd 56 44 3c
       -0.2125367 0.1313992 -0.040660523 0.0119836
000190 e2 cb 5c be 53 51 4a bc 99 48 7b 3c ca 45 7c bd
       -0.2156215 -0.012348491 0.015337133 -0.061589994
0001a0 6c ad e2 bd c6 e4 f4 bc 18 ba 4e bc 00 a5 37 bd
       -0.11068234 -0.029894244 -0.01261761 -0.04483509
0001b0 17 96 0b 3d 9c d4 8e bd 79 4a 73 3d 65 ff 20 bd
       0.034078684 -0.06974146 0.059397195 -0.039306063
0001c0 a6 0d 89 3d 94 34 5e 3d 39 62 8c bd ee 26 31 3a
       0.06692056 0.05424936 -0.06854672 0.0006757815
0001d0 a7 b4 8b bd 37 ce 42 3d 80 13 10 3d 42 64 32 3e
       -0.06821566 0.047559943 0.035174847 0.17421058
0001e0 82 cc a8 bd 30 f8 2e 3c 29 64 1a 3c 77 ed cd 3d
       -0.08242132 0.01067929 0.009423294 0.100550584
0001f0 43 12 a7 3d f6 44 13 39 03 9a 37 bd 7d 4e 06 bd
       0.0815778 0.00014044702 -0.04482461 -0.032789696
000200 01 c4 5b 3d 0e c2 66 bc 59 44 ca 3c 40 fd 53 3d
       0.05365372 -0.014084352 0.024690794 0.05175519
000210 ab 8c 21 3d c2 57 ce bb 05 c9 2f 3d e6 2c 82 3c
       0.039440792 -0.0062970826 0.042916317 0.01589055
000220 0a 6c 95 bc 3a 7c 4c 3d 30 16 0a 3d 4f b1 b0 bc
       -0.018239994 0.04992316 0.033712566 -0.021568922
000230 46 f2 88 3c 3d ae 44 3d c0 58 53 bc 46 33 1f 3d
       0.016717087 0.04801773 -0.012899578 0.038867258
000240 10 49 bb bc 6c dd b8 3c 69 97 e0 3c e0 f1 19 bc
       -0.022861987 0.02256652 0.027415948 -0.009396046
000250 fc bc 7f 3d e1 28 4a bd 2e c5 32 bd 1f 45 33 3d
       0.06243609 -0.04935539 -0.043645076 0.04376709
000260 61 52 17 bd 91 3a 23 be 12 0f 11 3c a4 0f 60 be
       -0.036943797 -0.1594031 0.008853691 -0.21880966
000270 78 86 da bd a9 31 de 3d 21 87 2f be 43 92 f6 3d
       -0.10670179 0.10849316 -0.17141391 0.12039616
000280 42 ad 81 bc 0c e9 b2 bd b1 c0 2f 3b 79 40 54 3e
       -0.015829686 -0.087358564 0.0026817734 0.2072772
000290 39 6c 2f 3e ea b2 25 3e 42 6d a9 3d ac 67 38 3e
       0.17131127 0.16181532 0.082727924 0.18008298
0002a0 d9 74 4d 3d 08 21 78 bd f7 7a 0a 3e ec 39 0a be
       0.050160263 -0.060578376 0.1352347 -0.13498658
0002b0 93 f4 49 3e c6 ed 6c bd b1 33 56 3e c2 c6 39 3c
       0.19722204 -0.057843946 0.20918156 0.011338891
0002c0 24 23 2a be c9 35 9b bd e0 6b 2e 3e 66 0a b5 bc
       -0.16614968 -0.07578618 0.17033339 -0.022099685
0002d0 1a 04 1f 3e 15 a1 62 3c 09 f1 9f be 8a 38 d3 3d
       0.15528908 0.01383235 -0.31238583 0.10313518
0002e0 15 43 0b bb 88 e6 c9 3d b0 34 06 bc 80 9d 80 be
       -0.00212497 0.098584235 -0.008191273 -0.25120163
0002f0 ba 67 95 3d cc 22 ed bd fc bc f2 bd 8a 44 ed 3b
       0.07295175 -0.115789026 -0.11852452 0.0072408365
000300 a8 01 60 bd 70 98 09 3d 28 54 2b bd 15 d2 20 be
       -0.05468908 0.03359264 -0.041828305 -0.1570514
000310 fa fb fe bd 73 11 8d 3c c0 69 a7 bd c0 31 53 3d
       -0.124504045 0.017220234 -0.08174467 0.051561117
000320 d2 dc 0c 3e 2a 6c 10 bd d8 42 2b be 27 cc 96 be
       0.13756111 -0.035259403 -0.16724718 -0.2945263
000330 06 2d 1a be 7c 4e d6 bc c1 25 0e be 12 f0 e1 bd
       -0.15056238 -0.026160471 -0.1388159 -0.11032118
000340 5d 84 db be 0a 6c 35 3e f3 dd 27 be 2d f7 e5 bd
       -0.42874423 0.17716995 -0.1639326 -0.11228786
000350 f8 d8 82 bc 6d 9f 87 be b9 4d ad 3e 69 aa 63 3d
       -0.0159726 -0.2648882 0.3384836 0.055582438
000360 82 e6 98 3c 49 95 1a 3e 89 8a 2d be 56 e1 b3 bd
       0.018664602 0.1509601 -0.16947378 -0.08783214
000370 2d 8c 50 3e 29 43 ee 3d 68 39 3d 3d fb ee 82 bd
       0.20365973 0.116339035 0.046197325 -0.06393238
000380 b5 75 9f be 9e 42 5f 3b 96 47 b0 bd cf 5d 5c 3e
       -0.3114449 0.0034066807 -0.08607404 0.2152016
000390 06 00 4f be ab 0e 90 bc 1a b0 5e bd 5f d6 1f be
       -0.20214853 -0.01758512 -0.054367162 -0.1560912
0003a0 03 19 13 be 49 b1 e0 3d 98 66 76 3d df 80 ad bd
       -0.1436501 0.109713145 0.060156435 -0.08471846
0003b0 eb da b2 3b 74 53 81 be 1d 63 d7 3d b1 3f 9b 3e
       0.005458226 -0.25258982 0.10516951 0.3032203
0003c0 2a 56 d2 bd bc 84 0e 3e 83 f1 39 bd ee d3 17 bc
       -0.10270341 0.13917822 -0.04539634 -0.009266837
0003d0 9f 79 8a 3e 4a b8 8b 3c 92 63 f1 bd d9 a8 ff 3d
       0.27045915 0.01705565 -0.1178657 0.12483377
0003e0 78 14 2f be 55 15 4e 3d f3 bf cd 3d 7b 5a 38 bd
       -0.17097652 0.050313313 0.10046377 -0.045008164
0003f0 e2 ff 32 bd c6 00 9c 3c 41 2a 37 bd b3 9d 33 bd
       -0.04370106 0.019043338 -0.04471803 -0.043851566

S5.bias f4 [120]
000000 fb 90 f1 bb 79 fb 40 bd 64 58 18 3e 55 4b 59 3d
       -0.0073720193 -0.047114823 0.14877468 0.053050358
000010 49 ad fc bc 8c 69 9a 3b 8e 17 83 bd ae 6e 8e bc
       -0.030844348 0.004712289 -0.06400977 -0.01738676
000020 c7 7c d2 3e 15 96 a0 3e 12 70 2f 39 6b 29 8a 3d
       0.41110823 0.31364504 0.0001673105 0.06746181
000030 36 60 48 3e dd dc 7f 3d 35 2b ad bc 1f 70 77 be
       0.19567952 0.06246649 -0.021138767 -0.24163865
000040 48 ea be 3d 2e 5d 83 be 43 ed 1b 3e 98 8f df bb
       0.09322029 -0.25657028 0.15227227 -0.0068225376
000050 42 5a af bb 5b 60 96 3d ad fc ee 3d a5 99 0a bf
       -0.0053513357 0.07342597 0.11669288 -0.5414069
000060 36 2c 48 bc 51 6a a8 bd 5c 55 29 3e 5a 54 b3 bd
       -0.012217572 -0.08223403 0.16536468 -0.08756323
000070 0b d8 6a be 6c 36 06 be 60 b4 ba 3b 3a 59 1f 3e
       -0.22933976 -0.13106698 0.005697772 0.15561381
000080 4a bb 38 3e f5 96 6b bc f0 4b 57 bd 49 7a f9 3e
       0.18040195 -0.014379253 -0.052562654 0.4872611
000090 b8 0b a9 3d 12 1b d3 bd a1 69 db 3d 62 18 6c bd
       0.08254188 -0.103078976 0.107135065 -0.05764044
0000a0 75 86 01 3e e7 e8 9b bb 19 c8 89 3c 24 95 80 bc
       0.12648948 -0.0047579887 0.016819047 -0.015696116
0000b0 ff 9d 6e bd c8 5e 4c bd 3a 2f 1a bd 29 fe f6 3d
       -0.058256146 -0.049895078 -0.037642695 0.12060196
0000c0 2f b6 1a 3c 30 2d 4c be e1 9a d7 3d 49 73 34 bd
       0.00944285 -0.19939113 0.10527588 -0.044055257
0000d0 ef f6 eb 3d aa e6 61 bc 66 86 70 bd ad 02 92 bd
       0.11521708 -0.013787905 -0.058721922 -0.071294166
0000e0 1b 40 0e 3e 00 48 2e bc bb 48 08 bc e3 f8 2e bd
       0.13891642 -0.010637283 -0.008318122 -0.042717826
0000f0 d1 f6 cb 3e bf 5f c1 bd 6c ef de bd 7c 21 41 bd
       0.39836743 -0.0944209 -0.1088551 -0.047151074
000100 83 88 f1 3c 7d 06 4a bf eb 96 31 3b b9 d0 63 bd
       0.02948404 -0.7891615 0.002709801 -0.055618975
000110 ec 0f 7b 3e bc 21 0e bd 74 e1 99 bd 50 a8 c3 3e
       0.24517792 -0.03470014 -0.07513705 0.3821435
000120 03 06 d8 3c 94 4b 22 bd d3 02 b0 3c ac ec af 3e
       0.026370054 -0.03962286 0.021485722 0.34360254
000130 32 68 10 3d 31 e5 a7 3e b3 87 33 be 65 12 2d bb
       0.03525562 0.32792047 -0.17532234 -0.002640867
000140 29 e8 12 ba 19 1b ed 3e 0e fc db 3d 16 5b 25 bd
       -0.00056040526 0.46309736 0.10741435 -0.04037007
000150 ec 16 63 3e c1 bf 26 bd 90 35 2b bd d0 30 9c 3e
       0.22176713 -0.040710215 -0.041799128 0.3050599
000160 ad 45 4b bd b7 ba 10 3d 38 9f a4 3e 9e 8c 8f be
       -0.049626995 0.035334315 0.32152724 -0.2803697
000170 0e 63 8c bd 27 37 ea bd 75 e4 d9 3d a9 6a 1a bd
       -0.06854831 -0.11436301 0.10639278 -0.037699375
000180 65 c3 10 3d 9b 5f 52 be be e9 8f bd 26 d3 83 bd
       0.035342593 -0.20544283 -0.07027005 -0.06436758
000190 45 4e 48 be a1 11 2f 3d e7 29 15 3e 8c 3c 5a 3e
       -0.19561107 0.04274142 0.14566766 0.2131216
0001a0 39 bf 36 3c 7c 0b 99 3c e5 a0 f2 3e 0d a0 04 3e
       0.0111539895 0.018682234 0.47388378 0.1295168
0001b0 c8 3a c2 bd a8 84 87 3d 0a 31 84 bc 8a 0f c9 bc
       -0.09483868 0.06617099 -0.016136665 -0.024543542
0001c0 28 0b 40 3d 1b c0 ff 3e ef e9 12 3e a9 3b 9c bc
       0.04688564 0.49951252 0.14347051 -0.019071417
0001d0 26 e0 12 bd ae 4d 88 bc d6 fb 15 3e c1 62 24 3c
       -0.035858296 -0.016638603 0.14646849 0.01003331

S6.weight f4 [84, 120]
000000 1b 82 0c bd 95 03 f9 3d 71 e9 80 3e b2 91 64 3d
       -0.034303766 0.12158886 0.25178102 0.05580301
000010 a0 9a 0d bf 5d e1 78 3d ae 64 84 be bb a2 c7 bc
       -0.55314064 0.0607618 -0.25858063 -0.024369588
000020 61 32 5c bb f0 1a 40 be c5 02 f7 bd 79 38 4f 3d
       -0.0033599364 -0.18760276 -0.12061075 0.050590966
000030 16 8a f6 be 25 03 5d 3d 36 68 10 bc 94 cb 54 bd
       -0.48152226 0.053958077 -0.008813908 -0.05195196
000040 8b 67 78 be 2c e9 57 bd 3d 89 bd 3a 40 ce aa 3e
       -0.24258249 -0.052712604 0.0014460456 0.3336048
000050 34 85 c1 3a 7b bc ad 3c 67 dc 9b 3d af f1 dc 3d
       0.0014764429 0.021208039 0.07610398 0.10788285
000060 ef 0a dc be 8d d3 01 be de d7 d7 3c a4 5f 00 3e
       -0.42977092 -0.12678356 0.02634805 0.12536484
000070 63 25 86 be 72 74 74 be a8 72 35 3c dd f3 55 3d
       -0.262004 -0.23872545 0.011074699 0.05223452
000080 b9 31 da 3d fb 46 4f 3e 73 25 2b bd 79 f2 80 bd
       0.10654015 0.2024192 -0.04178376 -0.06296248
000090 25 39 a1 3e 80 39 b7 3b 74 0f 85 be a9 75 8b bd
       0.3148891 0.0055915713 -0.25988352 -0.06809551
0000a0 5b e0 11 3e 19 7b d5 3d cf 58 bb bd a3 e9 1c be
       0.14245741 0.1042387 -0.09147798 -0.153235
0000b0 6d 97 1e 3d 94 f0 2a 3d a3 fb 22 3e ec e1 28 3e
       0.03871863 0.04173334 0.15916304 0.16492432
0000c0 4c 12 38 be 0d 50 69 be 26 23 5f be fd cd 90 bd
       -0.1797573 -0.22784443 -0.21790752 -0.07070539
0000d0 4d 7f 24 bc c1 7b a3 3c 65 ff 84 bd d4 33 61 3d
       -0.0100401165 0.019956471 -0.06494025 0.054981068
0000e0 48 e0 ed bd 94 53 bd 3d c3 7e 63 bd d1 b7 01 3e
       -0.11615044 0.09244457 -0.05554081 0.12667777
0000f0 9e 5d 10 3e df b3 07 be ad 24 59 be 57 4f 6b bd
       0.14098212 -0.13252209 -0.21205397 -0.05744871
000100 d2 75 7a be 85 bb c4 be b8 c2 dd be 58 2e 8d be
       -0.24459007 -0.38424316 -0.4331262 -0.2757442
000110 3a f2 fb bd 0b 05 0e 3d 81 06 ec bd 88 0e 04 bf
       -0.123020604 0.034672778 -0.11524678 -0.5158467
000120 20 88 02 3c 1f 11 d2 3d 73 7a 55 be c2 e3 0a 3f
       0.007967025 0.10257172 -0.20847492 0.5425378
000130 1a 05 6d 3c 89 c9 9a 3c 2a 7b 06 3b 43 f9 02 be
       0.014466548 0.018894928 0.002052019 -0.12790398
000140 10 95 1c 3e 57 f8 36 be c1 29 6e 3e 7d ad 70 bd
       0.15291238 -0.17868172 0.23258115 -0.0587592
000150 c1 df c8 bc 2b 23 20 3d 00 f6 a3 be 6a 87 b6 bd
       -0.024520757 0.03909604 -0.3202362 -0.08912547
000160 a7 11 43 3e 29 e2 d3 be f2 12 f9 bd 55 5c 7a 3e
       0.19049703 -0.41383484 -0.12161817 0.24449284
000170 a5 5a ad ba 4f 1a ef bc a4 34 65 bd 56 0f 19 3d
       -0.0013225867 -0.02918735 -0.055958405 0.03736814
000180 e0 62 85 3d c3 db 07 bf 2a d5 28 3d 63 24 ba bc
       0.065129995 -0.53069705 0.041218914 -0.022722429
000190 9a 01 e2 be af 9d a8 bc 13 82 0d 3d ea fb ff 3c
       -0.44141847 -0.020583002 0.034547877 0.031248052
0001a0 f9 81 81 3e d4 48 9c bc 20 ae 67 3d c2 4d 74 3d
       0.25294474 -0.019077696 0.056562543 0.059644468
0001b0 4b c1 98 3e 1e 53 68 bd 2a e1 2f 3d 6a d4 90 bd
       0.2983497 -0.05671989 0.042939343 -0.07071765
0001c0 1f 6d f5 3d 2b d6 8d 3e c1 c0 60 3d c8 82 a7 bd
       0.11983704 0.2770246 0.054871324 -0.081792414
0001d0 23 7c d1 3c 7f 86 a5 bd 62 df 8a bb 3a e7 59 bd
       0.025571888 -0.08082294 -0.004238055 -0.05319903
0001e0 ec d6 93 bd 79 5a 3b 3d 03 0c 03 3b e0 b3 92 3d
       -0.072187275 0.04574058 0.0019996173 0.07163215
0001f0 52 99 0e 3e ee 07 97 bd ef 0e 8d 3d ea f5 63 3d
       0.13925675 -0.07374559 0.06887614 0.055654444
000200 6a af f6 bd 92 5c 15 be ef 7b 25 bb 10 05 26 3e
       -0.12045176 -0.14586094 -0.0025250872 0.16212869
000210 d6 ba d2 3e b8 7d 76 3b 93 bc 8f 3d 38 48 47 3d
       0.4115817 0.0037611555 0.070183896 0.048652858
000220 16 48 18 be 9c 81 9d bd 81 58 0a bd 4f 65 2f be
       -0.14871249 -0.07690737 -0.03377581 -0.1712849
000230 ad 5a 58 bc 1d b9 27 bd e0 e4 91 3d 48 5b 1a bc
       -0.013205213 -0.040948022 0.071237326 -0.009421177
000240 93 c4 25 be 45 3c ba bd c8 a1 1d bd 83 fa 3b 3c
       -0.16188268 -0.09093527 -0.038484365 0.011473301
000250 ef 1c 6f 3e df 33 3e be 3d b9 30 bd 63 9d 73 bb
       0.23350881 -0.18574475 -0.043145407 -0.0037172667
000260 7d e6 49 bd 58 92 81 bd 0b 83 60 3d 92 73 83 bd
       -0.049292076 -0.06326741 0.054812472 -0.06418528
000270 40 22 3f 3d b9 7b 11 bd 96 23 15 bc 24 4a 28 b9
       0.046663523 -0.03551838 -0.009102723 -0.00016049348
000280 7d 29 09 3d ab 71 ad 3d a0 e1 fc bd 14 f4 28 bd
       0.033486832 0.08468946 -0.12347722 -0.041248396
000290 9b de e3 3d d0 8d 87 3c 16 0e 20 3e f6 4f ac bd
       0.11126443 0.016547114 0.15630373 -0.08413689
0002a0 8c 37 25 bd b1 e7 8e bd 37 2a fc be fc 9e fb 3d
       -0.040336177 -0.069777854 -0.49250957 0.12286183
0002b0 85 8e 95 bd ae 10 de 3b e8 98 ca 3c 64 cf aa 3d
       -0.07302574 0.0067768907 0.024731115 0.08340338
0002c0 3b 96 ca bd 75 8c a8 bd 70 b5 87 3d 32 09 70 3d
       -0.098919354 -0.08229915 0.06626403 0.05860252
0002d0 98 71 f4 bd c9 5e 67 bd 4b 03 a0 3e eb 67 c9 3d
       -0.11935729 -0.05648688 0.31252512 0.09834274
0002e0 72 10 63 be 73 b7 08 be 3e ed 6d bd 37 a0 6a 3e
       -0.22174242 -0.1335123 -0.05808758 0.2291268
0002f0 6a ee 76 bd c5 7c 62 3c b1 fc b0 3d c1 bf 23 3d
       -0.060285963 0.013823693 0.08641947 0.039977793
000300 ba 55 37 3d eb 68 c9 3d 5d 62 57 bd 1d 94 50 bc
       0.04475949 0.09834465 -0.05258404 -0.012730625
000310 cc 8d 35 bc 49 0c dd bd cc 2f 05 3d 62 82 6c bd
       -0.01108117 -0.10793359 0.032516286 -0.05774153
000320 ae 80 e1 bc 7f cf 56 bd 76 ff bd 3d 13 15 bd 3d
       -0.02752718 -0.052443977 0.09277241 0.09232535
000330 cb 6d 2c be 90 ab 80 bd 3a 3d 25 be 24 b6 34 bd
       -0.16838758 -0.06282723 -0.16136637 -0.044119015
000340 ee 83 d7 bd 80 52 37 bd c6 68 5f be 19 d0 21 be
       -0.105232105 -0.044756413 -0.21817312 -0.15802039
000350 64 19 58 bd 5c a2 f7 bc 65 17 37 3d 50 7c 0a bd
       -0.05275859 -0.030228786 0.044700045 -0.03380996
000360 46 49 eb bd f0 23 69 bc 89 bf fc bd 94 29 47 bd
       -0.11488585 -0.01422976 -0.1234122 -0.048623636
000370 0c 94 a0 3e 12 82 01 bd 5b 1f a9 bd 24 e6 f2 bd
       0.3136295 -0.031618185 -0.08257934 -0.11860302
000380 4d ee b2 bc c7 8e 3b bd 6a 40 35 be d9 84 1c bd
       -0.021842146 -0.04579046 -0.17700353 -0.03821263
000390 d8 ec f7 bd 8f c8 d5 bd f8 53 9a 3d da 1d 35 be
       -0.12105721 -0.10438644 0.07535547 -0.17687169
0003a0 ba 47 f0 3d 9c a0 fe bd 09 d2 46 be 9e 5f 54 bc
       0.11732431 -0.124329776 -0.1941606 -0.01296225
0003b0 21 21 64 bd 1c c5 ab bc 89 a1 28 3d e8 44 f9 bd
       -0.055695657 -0.020968013 0.041169677 -0.12171346
0003c0 bc c2 2e 3d 25 71 de 3c db 44 9b bd a7 45 ac 3c
       0.042666182 0.02715356 -0.075814925 0.021029307
0003d0 8f 5b 41 3c a9 98 63 bd 6a 99 e1 bb a5 be 6a bd
       0.011801614 -0.05556551 -0.0068847435 -0.05731072
0003e0 e7 5c 85 bd 55 32 91 bd 79 c3 81 bd c7 30 75 bd
       -0.0651186 -0.07089678 -0.063361116 -0.05986097
0003f0 86 15 a3 39 63 88 9e 3d 7a 00 10 3d 7c 93 98 3c
       0.0003110582 0.077408575 0.035156704 0.018625014

S6.bias f4 [84]
000000 cd f2 f3 3e 44 bb 2b be ce 4c d6 bd 59 1a c0 3e
       0.4764618 -0.16770655 -0.10463868 0.37520102
000010 41 1a 28 3c 2a 91 e2 bd 71 cc 6c 3f 23 64 b9 b8
       0.010260166 -0.11062844 0.9249945 -8.840139e-05
000020 af 92 c4 3e 9e 14 0f 3f fa a1 0f 3b 9c 6c 04 3e
       0.3839316 0.55890834 0.0021916614 0.12932056
000030 35 9b 07 be f8 45 d0 bd 80 3c f5 3e 9b 74 28 bd
       -0.132428 -0.101695955 0.4789772 -0.04112683
000040 98 3e 86 bb 2b f8 63 bd 59 0f c5 3d bb 76 e8 bd
       -0.004096817 -0.055656593 0.09622068 -0.11350771
000050 ad da ac bd 66 41 5a bd 2d e7 cd bd e4 18 00 3f
       -0.084401466 -0.053285025 -0.10053859 0.5003798
000060 05 fb 59 3f 43 95 a8 3e 5e 75 d5 3a 6a 99 9e be
       0.8514865 0.32926378 0.0016285588 -0.3097642
000070 32 32 88 3e ba 94 84 3d 5f a6 0f 3f 99 01 fa bd
       0.26600796 0.0647368 0.5611324 -0.12207336
000080 04 39 11 3e 23 62 cf 3e 5f 84 49 3c f5 af 8e 3e
       0.14181906 0.4050456 0.012299626 0.2786862
000090 3d 16 90 3e 6e 90 88 3e 75 6f ee 3d 7e 82 af 3e
       0.28141966 0.2667269 0.116423525 0.34279245
0000a0 05 d9 56 3f ce 0e a9 bd 5b 36 66 bc 58 f5 91 3e
       0.83924896 -0.08254777 -0.014051045 0.28507495
0000b0 b8 3b 6b 3e c8 16 f3 bd 72 04 a5 bc 10 e6 fa 3e
       0.22972 -0.118695796 -0.020143721 0.4900365
0000c0 e6 7c 56 bd 75 2b 31 3e 8b ca ab 3d dd f4 ae 3e
       -0.052365206 0.17301734 0.083882414 0.3417119
0000d0 65 a0 32 3e 70 c7 b7 bd e7 d2 15 3f b3 f6 c5 bc
       0.17443998 -0.089735866 0.58524936 -0.024165487
0000e0 b9 3e 03 be 99 af 3d bd 9a d0 0e be bd 6c da bd
       -0.12816896 -0.04631004 -0.13946763 -0.106652714
0000f0 bb a8 0f be 08 ef 3e be 0f 1b cc 3b 43 91 10 3d
       -0.1402921 -0.1864587 0.0062288116 0.035294782
000100 3a 92 8e be 64 9c c5 bd 68 92 8e 3e a0 cb fb 3d
       -0.27845937 -0.0964897 0.27846074 0.12294698
000110 c7 11 0d 3e b5 f8 16 3e 8e 09 7d 3e ae ae a2 be
       0.13776313 0.14743312 0.24710676 -0.31773895
000120 ef db c8 bd 1e 16 af 3e 24 58 3e 3d e3 f5 3e bd
       -0.09807574 0.34196562 0.046470776 -0.046621215
000130 e2 a4 a9 3e 32 50 9d 3e bf f7 21 3e b9 b3 7a 3e
       0.33133608 0.30725247 0.15817164 0.24482621
000140 a4 b7 5b 3e a8 f1 3b be 4d 4b 17 3e 7b bb 8c bd
       0.21456772 -0.18353903 0.14774819 -0.068716966

S7.weight f4 [10, 84]
000000 85 b6 58 be 00 41 4a 3e 87 3d d9 bd cd 4d 0c 3e
       -0.21163376 0.19751358 -0.106074385 0.13701554
000010 6f 91 56 be 18 09 47 bd fa cd 37 3f 31 ea 38 3e
       -0.20953916 -0.048592657 0.7179867 0.18058087
000020 78 09 35 be de 91 9f 3f 40 d6 47 be 0b 33 76 3e
       -0.17679393 1.246639 -0.19515324 0.24042909
000030 ed 2c f0 3c 4a aa 62 bd 6e 1e 03 3f c7 05 ed bc
       0.029318297 -0.05533818 0.51218307 -0.028933419
000040 e1 23 85 3e 81 7f c2 3e e2 bc 33 3e 66 75 4b 3e
       0.26003936 0.37987903 0.17552522 0.19869003
000050 e9 c9 70 3d 0b 20 ec bd 2c 2f fc 3d 29 45 9d 3e
       0.058786307 -0.11529549 0.12313685 0.30716828
000060 a3 8d 52 3e 61 55 e3 be d7 86 76 be 7e f0 69 3d
       0.20561843 -0.44401076 -0.24074875 0.057114117
000070 07 3d 2b 3c c6 c4 17 3f 55 b7 1b 3f cc 6f f3 be
       0.010451562 0.5928463 0.6082662 -0.47546232
000080 c0 b2 8d be b9 c4 3b 3f 56 97 a1 3e eb 1f 32 3f
       -0.27675438 0.7334705 0.31560773 0.6957995
000090 16 4d f9 bc 22 03 31 3d 0c 6c c9 bd ff 60 44 3a
       -0.030432265 0.04321588 -0.098350614 0.000749126
0000a0 d3 a8 f3 be 5b 15 d4 bc 4e 9f ac 3e cf ad e5 3e
       -0.4758974 -0.02588909 0.3371529 0.44859168
0000b0 38 b9 d2 bd da da 85 3e 00 ee 04 be 8a b9 d8 bc
       -0.10289234 0.26143533 -0.12981415 -0.02645566
0000c0 04 31 fe 3c c1 d8 23 be ab 9d 96 3e df 63 4e 3f
       0.031029232 -0.16000654 0.29417166 0.8062114
0000d0 1e 7e be be 26 00 56 3d 4f c7 a9 be 7e 86 00 3f
       -0.37205595 0.052246235 -0.33159873 0.5020522
0000e0 d6 5c 31 be f1 c2 cf bc 11 d8 fc 3d 2b e4 96 3d
       -0.1732057 -0.02536151 0.12345899 0.07367738
0000f0 20 2d a4 3e 4f 64 89 3d 0a bc 03 3f 83 df 43 be
       0.32065678 0.067085855 0.514588 -0.19128232
000100 99 7a f5 3c a3 f8 13 bd f6 82 d9 3e 05 e1 35 3d
       0.029965686 -0.03612579 0.42482728 0.04440405
000110 4d fc 87 be 06 63 77 3e 95 80 66 be fe 62 a4 3e
       -0.26559678 0.24158868 -0.22509988 0.32106775
000120 7f a3 7e 3e 50 6e 5a be b0 44 02 3e a7 0c 84 3b
       0.24867056 -0.21331143 0.12721515 0.0040298286
000130 00 91 22 3f 1a 33 8b bd 26 68 1e bf a1 0b 28 be
       0.635025 -0.06796856 -0.6187767 -0.16410686
000140 c3 9f d2 be b6 06 e5 3d 7e 95 7f 3d 10 4e c3 3e
       -0.41137514 0.11182921 0.062398426 0.38145494
000150 1a bc ef be 1c 08 e4 be 41 a9 ab bd b2 f9 d3 3e
       -0.46823198 -0.44537437 -0.08381892 0.4140144
000160 a8 3a db 3c 6f ea 3e bd 7f 77 b6 bc 50 ff 8b be
       0.026761368 -0.046610292 -0.022273777 -0.27343225
000170 50 94 dc 3e cc b8 8f ba 33 3f 41 be 77 08 10 bf
       0.43081903 -0.0010965108 -0.18871765 -0.56262916
000180 6e dc ff 3d 5f b7 d6 bd 6e 6f 24 bf 52 ef ff 3c
       0.124932155 -0.10484194 -0.6423253 0.031242047
000190 af ae f9 bc 5e 56 31 bd 8d 99 8c 3f 6a 42 05 3f
       -0.030478803 -0.043295257 1.098436 0.52054465
0001a0 a3 12 d4 3d fd b1 d4 bd fd 4a 72 3d 4e e5 4b bc
       0.10355117 -0.10385511 0.059153546 -0.012444807
0001b0 e5 5c 6a 3e a3 71 9f be 92 cf 98 3f a1 41 b9 be
       0.22886999 -0.31141385 1.1938345 -0.36182883
0001c0 c8 24 a6 3f 38 6e 54 3b 9d f2 42 bf 8c 1c 9b 3e
       1.2979975 0.0032414328 -0.7615145 0.30295217
0001d0 e0 6f d5 be 63 c9 10 bf 4c 90 ba be ef 1c f3 bd
       -0.41686916 -0.5655729 -0.36438215 -0.11870753
0001e0 c3 53 25 be a1 54 03 bf 12 33 86 3d 50 86 c3 be
       -0.16145234 -0.5130101 0.0655271 -0.3818841
0001f0 1f 91 9e 3e 2d 94 e8 3c 66 9f 63 bc c1 a3 1d be
       0.30970094 0.028390968 -0.013892984 -0.15394498
000200 03 56 fa be a8 7b b3 bd d5 06 53 bd 8c 13 fd 3d
       -0.48893747 -0.0876382 -0.051520187 0.12357244
000210 2d 14 76 bd 4f 6f 53 be f3 4c d6 bd 5c 49 d9 be
       -0.060077835 -0.2064793 -0.10463896 -0.4243878
000220 a5 50 1c bf e9 1a bc 3d c8 b5 d1 3d 23 18 09 be
       -0.61060554 0.0918482 0.1023975 -0.13388114
000230 c7 c6 f0 bd 50 f6 38 bd 3d 8f e0 bd ba c3 9f bc
       -0.11756664 -0.045156777 -0.109648205 -0.01950251
000240 02 df 09 be f8 f8 dd bd 03 9f f3 be 80 e4 dd bd
       -0.13463977 -0.10838503 -0.47582254 -0.108345985
000250 99 b3 66 be c3 b8 11 3a 4c 2a df 3c 8b 0b 07 3d
       -0.22529449 0.00055588427 0.027241848 0.032969993
000260 ea 22 80 3f 8b 5e dc bd 4c 0c a9 be 4c 66 9a be
       1.0010655 -0.1076022 -0.33017194 -0.3015617
000270 01 3b 5c 3e ed f5 88 be 5d f5 a6 bd 2b 92 2c bc
       0.21506883 -0.26750126 -0.08152268 -0.010532896
000280 ab 7e 49 3e af 66 1b 3e ed a6 3b bf f3 b7 f8 3d
       0.19677226 0.1517589 -0.73301584 0.121444605
000290 8a 7f bf bd f1 92 47 bf ec d3 1b bf c8 1a ec 3d
       -0.09350498 -0.7795859 -0.6087024 0.115285456
0002a0 9a 09 17 3f 36 58 17 be d8 4b 9b bc 1a ec a7 3e
       0.58999026 -0.14779744 -0.018957064 0.3279732
0002b0 c9 db 23 be 10 0b 11 bd 11 91 59 3f ec 96 56 3f
       -0.1600181 -0.03541094 0.8498698 0.8382404
0002c0 ec 72 a1 3e 9d 33 1f bf 65 b5 2b bd fa 3a 2a bd
       0.3153299 -0.6218813 -0.04192104 -0.04156015
0002d0 91 cf 0c 3b 6c 8c c8 bc 60 85 5e 3f 34 9c 5c bd
       0.0021486024 -0.02448102 0.86922264 -0.053859904
0002e0 d9 a8 71 bd bc 5c 49 3e f8 85 41 be 53 66 d4 3c
       -0.058998916 0.19664282 -0.18898761 0.025927698
0002f0 6a 63 66 bd c9 0b 0a 3e f1 e7 15 3c 22 92 a7 3e
       -0.056247152 0.13481058 0.009149537 0.32728678
000300 19 ee 41 3f e5 8c 97 be 7b eb ab bd ef 46 37 be
       0.75753933 -0.29599681 -0.08394524 -0.17898153
000310 3b a4 25 3e de 25 a5 3e f7 1a 40 be 29 58 91 3e
       0.1617593 0.32255453 -0.18760286 0.28387573
000320 88 ce 99 3e 28 cb 13 3f d6 e0 71 3e b7 95 4d be
       0.30040383 0.57731867 0.23620924 -0.20076643
000330 04 68 e3 3d a7 32 20 be d7 a8 0a be f7 ba 5e bf
       0.11103824 -0.15644322 -0.1354097 -0.87004036
000340 85 bd 06 bf fd 18 64 3d aa f5 e3 be 02 75 ec 3c
       -0.52632934 0.055687893 -0.44523364 0.028864387
000350 8c 98 8e bd 01 c8 a4 3d 77 98 81 be ec 9e 91 3e
       -0.0696269 0.0804596 -0.25311634 0.2844156
000360 4c 24 91 bd 8c ff 6b be 33 78 64 bb 8b 30 5a 3f
       -0.07087001 -0.23046702 -0.0034861683 0.8523032
000370 fc ae 77 be 13 f9 87 3d f8 43 09 3e 2e df 51 3d
       -0.24187845 0.06639304 0.13404834 0.05123823
000380 39 ba 10 3e fc 83 92 be 1c 1a 28 bf dd fe db bd
       0.14133538 -0.2861632 -0.6566484 -0.10741971
000390 d7 41 8e be 17 81 95 3d cb 45 06 3f 65 5d 13 be
       -0.27784607 0.073000126 0.52450246 -0.14391096
0003a0 eb f7 ef 3b cc 62 34 bc ff b0 9f be 26 9e bc be
       0.0073232553 -0.011009883 -0.31189725 -0.36839408
0003b0 3c 3f dd 3d 87 42 c7 be ae 87 e1 be 7c 1c 43 be
       0.108030766 -0.38917944 -0.44048828 -0.19053835
0003c0 fa 7e c2 3d 01 bd e6 be ef 0c 5e be be 42 f7 bd
       0.09496875 -0.45066074 -0.21684621 -0.12073277
0003d0 b5 66 ac 3d bb d6 60 3e 3c 29 7e 3f 3e 2d c9 3e
       0.08418027 0.21956913 0.9928167 0.3929233
0003e0 78 71 04 3e 49 0f bb bd 43 3f 65 bb a6 fa ca bd
       0.1293391 -0.09133775 -0.0034980334 -0.09911089
0003f0 a4 ff 85 3e 54 15 c5 be a6 85 cd bd 22 40 bf 3e
       0.261716 -0.38492835 -0.10035257 0.37353617

S7.bias f4 [10]
000000 ab 6f f5 be dd fe 01 bf 36 09 3c 3e f2 2f 71 3e
       -0.47936758 -0.50779516 0.18362889 0.23553446
000010 d5 d6 22 be ce 8c 65 3f b6 0c 73 3f ed cf c3 3c
       -0.15902264 0.89667976 0.9494127 0.023902858
000020 13 6e e7 bd e0 97 84 bf
       -0.11300292 -1.0358849
