ex1_303166318_307955872/models/Lenet5 Batch Normalization.pkl (torch, 259243 bytes, 26 tensors)

C1.weight f4 [6, 1, 5, 5]
000000 ff fd ad 3d 25 b2 24 bf a2 70 30 bf 2a 3d 32 bf
       0.084957115 -0.64334327 -0.68921864 -0.6962458
000010 4c 9f d0 be b3 87 76 3f ad 0f 3e be ec 9a 9b bf
       -0.40746534 0.9630081 -0.18560667 -1.2156653
000020 aa 6a c0 bf c0 c1 ff be 9c f3 06 3e 51 51 2c 3d
       -1.5032551 -0.49952507 0.13178867 0.042069737
000030 99 92 45 be f4 b7 88 3d 73 0c 99 3e 94 ea 5c 3e
       -0.19294204 0.06675711 0.2989231 0.2157386
000040 45 61 b3 3e e8 72 97 3e c4 e7 1d 3e 0e 50 b9 3e
       0.35035148 0.29579854 0.15420443 0.3619389
000050 25 20 34 3e de 85 0a 3b c0 2b bd 3e 3e 7a 10 bc
       0.17590387 0.002113692 0.3694744 -0.008818207
000060 5d d6 7b be c2 7a 91 bf 26 16 fe be d3 12 95 be
       -0.24593492 -1.1365588 -0.49626273 -0.29115924
000070 4b 29 89 be c0 94 0a 3e cf d3 47 be d8 6a f1 be
       -0.26789317 0.13533306 -0.19514392 -0.47151828
000080 78 81 d8 3e 8a 5a 89 3f cc d0 8b 3f ae 93 70 3f
       0.42286277 1.0730755 1.0923095 0.9397534
000090 99 8f 0a 3f de c8 c5 3d 38 60 43 3e 27 b0 2b be
       0.5412536 0.09657453 0.19079673 -0.16766416
0000a0 2c 84 19 3f 87 c4 ad 3e e1 9b a8 be 61 4f 9f bf
       0.59967303 0.33939 -0.32931426 -1.24461
0000b0 44 25 7f bf 38 37 8a bd d9 a1 9d be 3e 61 2e bf
       -0.9966624 -0.067488134 -0.30787542 -0.6811713
0000c0 58 69 17 bf 79 62 25 bf 12 d2 3c be 44 4e a2 bd
       -0.59145117 -0.6460338 -0.1843951 -0.07925084
0000d0 f0 1f 8e 3b 20 5e 6b 3e d3 55 12 3f 2d 4f fe 3d
       0.0043373033 0.22985125 0.5716221 0.12417445
0000e0 0d ee 29 bf 99 41 92 bf af 27 28 bc 14 ab 7d 3f
       -0.6637886 -1.1426269 -0.010263368 0.9908917
0000f0 b0 7b ca 3c 82 92 34 be 37 c5 8f bf 12 50 40 bf
       0.024717182 -0.17634013 -1.123206 -0.7512218
000100 63 8a b3 3a bd ad ca bd 2d 3c 92 3e 31 5b 80 3e
       0.0013697859 -0.09896419 0.28561535 0.25069574
000110 35 d4 e5 be 40 72 8f be 7e 32 17 3d 56 70 02 3f
       -0.44888464 -0.28016853 0.036913387 0.5095266
000120 8d 14 cc 3e 68 d8 43 be 35 7d 6f be 5a a3 c8 be
       0.3985943 -0.19125521 -0.23387606 -0.39187127
000130 a0 22 7c bd 50 b8 ec 3e 1f f9 99 3e 85 42 ab bd
       -0.06155646 0.4623437 0.30072877 -0.08362297
000140 ed 7c 32 be 10 3e 97 be a5 12 b1 3e 01 1d 00 3f
       -0.17430468 -0.29539537 0.34584537 0.50044256
000150 6e d2 80 3d 71 83 3a bf 2b 08 55 bf 0b 87 bc 3d
       0.06290136 -0.72856814 -0.8321559 0.09205445
000160 25 8d 62 3f 4f c0 b5 3e 13 a9 ad be 2e 45 2e bf
       0.8849662 0.35498282 -0.33918056 -0.6807431
000170 28 b1 a0 3e 28 47 47 3f 2c 9b 5e 3e 64 44 cc be
       0.3138516 0.7784295 0.21738881 -0.39895928
000180 04 ea 95 be 20 17 cc 3e 56 37 ff 3e b3 1f ab 3e
       -0.29280102 0.39861393 0.49846905 0.33422622
000190 9b 2a 2f bf 44 4e f5 be 0f 71 1d bd 49 7e 3f 3f
       -0.68424386 -0.47911274 -0.0384379 0.7480207
0001a0 a4 2c 86 3e 01 12 f8 3e dc af 8a 3e a6 4a 23 be
       0.26205933 0.48451236 0.27087295 -0.15946445
0001b0 68 fd 01 3f 06 84 31 be 44 48 0f 3f 42 d4 86 3f
       0.5077729 -0.17335519 0.55969644 1.0533526
0001c0 ff 92 10 3f 24 ee 08 bf 7b 0b 65 bf 5f 66 0b 3e
       0.564743 -0.53488374 -0.8947064 0.1361327
0001d0 a7 3b a2 3f ed 47 87 3f 20 1a 1a bf c1 15 8b bf
       1.2674454 1.0568825 -0.60196114 -1.0866014
0001e0 4b cb 0e bf bb 07 bc 3e a2 4e c2 3e fc fc 77 bf
       -0.5577895 0.36724648 0.37950617 -0.968704
0001f0 89 dc 26 bf 54 af 08 bf c6 b3 99 3f f6 7b d1 ba
       -0.6518026 -0.5339253 1.2007987 -0.0015982378
000200 77 07 13 bf d1 36 39 be 94 af f7 bf b1 8d e7 3f
       -0.57433265 -0.18087317 -1.9350457 1.8090116
000210 9f a6 87 3c 6f 22 a7 bc 53 fd 0d 3e 0e 08 2a c0
       0.016558943 -0.020402161 0.13866167 -2.6567416
000220 55 94 85 3f 48 54 b8 bd bf 97 8a 3f 35 e6 10 3f
       1.0435892 -0.090004504 1.0827559 0.5660127
000230 75 21 c1 bf 5f 55 32 3f 89 ed 92 3f 95 05 cf 3d
       -1.5088335 0.69661516 1.147874 0.101084866
000240 b6 65 1c bf 7e 0a 05 3f 92 83 b7 3f b0 b7 e2 be
       -0.610927 0.51969135 1.4337027 -0.44280767
000250 0f 50 c5 bf 43 19 e2 bd
       -1.5415057 -0.110399745

C1.bias f4 [6]
000000 b4 c7 65 3d be d8 30 be 93 a7 05 3e 13 89 2d bd
       0.056098655 -0.1727018 0.13052206 -0.042367052
000010 47 fb a1 bd a1 4b e8 bd
       -0.079092555 -0.1134255

B1.weight f4 [6]
000000 01 70 e5 3f 59 e6 d6 3f a9 09 e2 3f 83 7d 56 3f
       1.7924806 1.6789047 1.7659198 0.83785266
000010 bb f4 89 3f 3f ff b6 3f
       1.0777811 1.4296645

B1.bias f4 [6]
000000 4d 4c 06 bf 0e 20 19 bf 42 7d 01 bf a5 98 02 3d
       -0.52460176 -0.59814537 -0.50581753 0.031883854
000010 ae 86 da 3e 69 df d0 bd
       0.42680877 -0.10198862

B1.running_mean f4 [6]
000000 1d 89 39 bf f6 5b 5b bf 8a 44 e0 be af 58 a6 3e
       -0.72474843 -0.85687196 -0.4380229 0.32489535
000010 04 69 32 3e 64 b1 59 be
       0.17422873 -0.21259075

B1.running_var f4 [6]
000000 9b 1d c2 3f 4c 08 6d 3f 00 4b 26 3f 80 3d a0 3f
       1.5165285 0.92590785 0.6495819 1.2518768
000010 37 27 8f 3f 45 2b 98 3f
       1.1183842 1.1888205

C3.weight f4 [16, 6, 5, 5]
000000 11 97 1c be 91 83 c8 be 55 46 dc bd 96 96 aa bd
       -0.15292002 -0.39162877 -0.10755602 -0.08329503
000010 81 56 dd 3d e1 0c 81 3e 76 68 18 3e d7 43 58 3e
       0.10807515 0.25205138 0.14883599 0.21119629
000020 de 31 3c bd 82 0d 80 be 3b a8 ec 3d 27 8c e3 bd
       -0.045945995 -0.25010306 0.11555525 -0.11110716
000030 a4 8e 5d bd 10 88 87 3c 72 84 8c be 26 f0 88 3e
       -0.05409111 0.016544372 -0.27444798 0.2674572
000040 86 93 97 bd 71 39 8e be 43 ce 4d 3e f8 db cf bc
       -0.07401185 -0.277782 0.20098214 -0.025373444
000050 f0 2a 54 3e d3 fd 12 bd 9b 80 ad be fe 71 b7 3d
       0.20719504 -0.035886597 -0.3388718 0.08957289
000060 eb 07 96 3d f8 93 8b ba bc 6e 6c 3c cf 6e 04 3d
       0.07325729 -0.0010648957 0.014430698 0.032332238
000070 4f ae 49 3c 8e 48 54 3d 83 a8 69 bd 11 31 10 3d
       0.012309625 0.051827006 -0.05704547 0.035203043
000080 e7 89 4d 3e 52 fa ca 3e 69 95 08 bc c0 4e 00 3e
       0.20072137 0.39644104 -0.008336403 0.1253004
000090 9f af 64 be 2d 2e c7 bd f9 a1 6b 3e 2e 1f 9a bd
       -0.22332619 -0.09725604 0.23011006 -0.07525478
0000a0 3c 00 99 3d 0e 93 2f be 90 bd 09 be 15 a3 fb 3d
       0.07470748 -0.1714594 -0.13451219 0.12286965
0000b0 7f 03 9c 3d 9c 1e 0a be 47 ba a2 bd db 6f 1d 3d
       0.07617854 -0.13488239 -0.07945686 0.03843675
0000c0 9e 1a 97 bd 08 04 c0 3e ed 7d 86 3e b6 19 9b 3e
       -0.07378124 0.37503076 0.2626795 0.30293053
0000d0 45 6c 41 3e 09 fd 31 3e 33 ea 59 3d b2 d0 cb 3d
       0.18888958 0.17381682 0.053201865 0.09951915
0000e0 e9 73 2d 3e 1d b4 59 3e 31 9f ad 3e b0 66 e8 3d
       0.16938747 0.21260114 0.33910516 0.11347711
0000f0 fa cd 82 3c 3e 18 09 3e 88 9c 88 bd 99 2d 6d 3d
       0.015967358 0.13388154 -0.06670481 0.057904813
000100 16 a5 70 3d fd 73 b5 bd 66 81 be 3d b6 f7 8d be
       0.05875119 -0.08860014 0.093020245 -0.2772805
000110 e0 f3 e6 bb cd 33 b8 3e 51 63 60 be 39 e7 75 3e
       -0.007048115 0.3597702 -0.21912886 0.24013986
000120 56 48 b7 be 48 4b 85 bd 05 44 b0 3e 14 1b 08 be
       -0.35797375 -0.065084994 0.34426895 -0.1329158
000130 68 49 ae bc b3 02 b7 bd 7f e8 dc 3d 4f ca 9e 3b
       -0.021275237 -0.08936062 0.107865326 0.0048458944
000140 16 a2 8f bc 03 17 87 be 58 bb e7 3a 50 66 6d 3d
       -0.017533343 -0.26384744 0.0017679734 0.0579589
000150 04 42 b2 bc d2 29 38 be ff 74 73 be 0c c4 5a 3e
       -0.021759994 -0.17984703 -0.23775099 0.21363848
000160 e4 54 2e 3d a4 f1 98 bc cd 75 26 bd 85 ef 8e be
       0.042561427 -0.01866991 -0.040639687 -0.27917114
000170 63 7f 90 3e 58 c4 38 be 2d ea c9 bd 0a a9 8a bd
       0.28222188 -0.18043649 -0.098591186 -0.06770523
000180 19 bf a4 be b4 82 9b 3d b2 f5 9a bd 21 54 58 be
       -0.32177046 0.07593289 -0.07566394 -0.21125843
000190 95 a3 d4 bd 20 3a 9e bd ce ce 41 bd 99 cc 9e be
       -0.10382763 -0.0772593 -0.047316365 -0.3101547
0001a0 ef 95 03 3d 9c 48 b7 bc 34 b4 22 3d e3 93 70 3d
       0.03212541 -0.02237349 0.039722636 0.058734786
0001b0 5c 9e ec 3c c7 75 3d be 11 8f d4 3d b2 61 89 3d
       0.028884105 -0.1850196 0.1037885 0.06708087
0001c0 aa 91 5d 3e c0 17 12 3e ed 95 ac be b9 04 08 be
       0.21637598 0.14266872 -0.33708134 -0.13283052
0001d0 96 bf de 3c a3 28 33 bc 16 79 e5 bd 19 cc 10 be
       0.027190965 -0.0109349815 -0.11204736 -0.14140357
0001e0 10 4e be bd cb a9 aa 3e 7f c5 93 be 05 34 89 be
       -0.09292233 0.33332667 -0.28861615 -0.267975
0001f0 19 1f 8b 3e d0 08 ef 3c 51 fa 7b be 6b be 55 3e
       0.27172163 0.029179007 -0.24607207 0.2087342
000200 7b 25 b4 be 3b 38 0d 3e 71 f2 7e 3e 5f 46 93 be
       -0.35184845 0.13790981 0.24897172 -0.28764626
000210 9f 0f c1 3e 68 f0 97 3c c3 a9 a5 bd da a6 9d bd
       0.3770723 0.018547252 -0.0808902 -0.0769784
000220 15 1c 8b be 63 e7 79 3e 4a 7c 7d 3e c0 dc 37 bd
       -0.27169862 0.24404673 0.24754444 -0.044888258
000230 04 f2 3d be f1 95 ea bd c6 6c 27 3e 63 87 6a 3d
       -0.18549353 -0.1145438 0.16350088 0.05725802
000240 74 f8 13 be 85 6a c4 bd bc 89 75 be 43 54 9b bd
       -0.14450246 -0.095906295 -0.23978323 -0.07584431
000250 1e 3d f2 bd 75 7e bf be 97 62 b5 3e 5f e0 5c 3d
       -0.118280634 -0.37401167 0.3542678 0.053924914
000260 3f ba 93 be 4f a5 64 3d 3c 55 9b 3e 54 01 4a be
       -0.28853032 0.055821713 0.30338466 -0.19727069
000270 00 8c ff be ce 51 91 be 91 61 36 be 03 fa ea 3c
       -0.499115 -0.28382725 -0.17810656 0.028683668
000280 a1 e9 d6 bd 14 d7 ba be 73 a1 12 3d 28 03 7f be
       -0.1049378 -0.36492217 0.0357985 -0.24903548
000290 8b b6 57 be 5a 7a 63 3e 53 85 eb be 1d 5f a1 3d
       -0.21065728 0.22214642 -0.46000156 0.078794695
0002a0 4e 39 83 3d f9 71 e5 ba 36 d0 25 3d 0f cd 03 bd
       0.064074144 -0.001750528 0.04048177 -0.03217798
0002b0 bf 33 96 3d cd 0d 2d 3e ce 83 8a bc 93 2b 02 bd
       0.073340885 0.16899796 -0.016908552 -0.031779837
0002c0 a3 a2 16 3e 2f b1 11 be ef dd 5b be d9 e8 28 3e
       0.14710478 -0.14227746 -0.2147138 0.16495074
0002d0 af 08 17 3e 55 53 94 bc 98 9d 52 3e ae 89 12 be
       0.14749406 -0.018106142 0.2056793 -0.14310333
0002e0 c2 b1 c0 bd 96 ca 49 3e 06 35 1e bd 5f bf ca bd
       -0.094089046 0.19706187 -0.038624786 -0.098997824
0002f0 70 65 2f be 98 0b 80 be 9b af 39 be 0c f3 83 3c
       -0.17128539 -0.25008845 -0.18133394 0.016107105
000300 80 bb 68 3d 91 fe 5d be 2c fc e5 bc 79 77 64 bd
       0.05681944 -0.2167914 -0.028074346 -0.055778
000310 86 cc 24 3f 51 95 1f 3e ff 1d 32 be fc 9e 85 b8
       0.6437458 0.15584303 -0.17394255 -6.371547e-05
000320 68 cc d2 bd df f0 85 bc 74 12 f7 bd 6b 0f c6 bc
       -0.10292894 -0.016350208 -0.120640665 -0.024177274
000330 49 fa 88 3e 18 48 24 3d 87 6e c5 bd 12 ba 01 3e
       0.26753452 0.040107816 -0.09640222 0.12668636
000340 d2 f9 f4 3b 64 47 86 3d 84 cd d3 3c 1c 97 86 be
       0.00747607 0.065565854 0.025854833 -0.26287162
000350 5a 9c a6 3d fd 36 68 3e cc b2 92 bd 6a 82 84 bd
       0.081352904 0.22677226 -0.07163009 -0.06470187
000360 73 22 83 be 0f 2e 84 3d dc 61 5b 3e 20 3e ba bd
       -0.2561222 0.064540975 0.21424049 -0.09093881
000370 45 e8 16 be ac 50 dd be 41 0b cc bd 5d 39 fc bd
       -0.14737041 -0.4322561 -0.09963084 -0.12315629
000380 52 09 4c 3b 84 3e e7 be 52 03 ec bd 9e b2 3e 3e
       0.0031133485 -0.45164883 -0.11524071 0.18622825
000390 07 10 a9 be 45 34 97 be ca 31 71 bd c1 ec 87 be
       -0.3302004 -0.29532066 -0.058885373 -0.26547816
0003a0 09 7b 59 3e c5 64 30 bd 04 b0 03 be 88 2f 87 bb
       0.2123834 -0.04306485 -0.12860113 -0.004125539
0003b0 24 e7 2f 3e c5 d4 82 3d 8c 3f 12 3e d9 7e 27 bc
       0.17178017 0.06388239 0.14282054 -0.010223114
0003c0 85 42 55 3e 85 e2 ec 3e 82 cf 41 3d 38 94 7b bd
       0.20826156 0.4626657 0.047317035 -0.06142065
0003d0 79 57 12 3d 67 e4 ce 3e e5 b6 e3 3e cb e8 07 3e
       0.03572795 0.40408632 0.44475475 0.13272397
0003e0 a7 a2 8f be ca 68 8a be e0 c6 d5 bc 08 34 07 3f
       -0.2805378 -0.27033073 -0.026095808 0.5281377
0003f0 4f 06 0b bf ac f1 02 3e e1 0c b9 be 60 82 25 bd
       -0.543065 0.12787503 -0.36142638 -0.04040754

C3.bias f4 [16]
000000 1e 6a c0 bc 76 fa e6 3c 3a b9 9d bd 5f 41 b4 3c
       -0.0234881 0.028195601 -0.07701345 0.022003828
000010 4c 01 a5 3d 12 d3 db 3a 64 a1 6e bd dc 85 1d 3d
       0.08056888 0.0016771278 -0.058259383 0.038457736
000020 bc 89 12 3d 84 e5 e6 bc c6 8f 76 bd 36 39 86 3d
       0.035775885 -0.028185613 -0.060195707 0.06553881
000030 3c f3 f3 bc 7f a8 b3 3c c1 25 c1 39 78 10 67 3d
       -0.02977907 0.021930931 0.00036839957 0.05641219

B3.weight f4 [16]
000000 03 74 9a 3f 43 87 81 3f 84 ce 71 3f 41 48 87 3f
       1.2066654 1.0119404 0.9445574 1.0568925
000010 40 78 a0 3f 9c 95 93 3f 09 17 9b 3f 4f 67 77 3f
       1.2536697 1.1530032 1.2116405 0.9664201
000020 4d e7 98 3f f9 ce 79 3f 11 2a a2 3f 7d 7e 5f 3f
       1.1945587 0.9758144 1.2669088 0.8730238
000030 c9 5a 66 3f 76 f0 78 3f 63 de a1 3f 45 41 75 3f
       0.8998228 0.97241914 1.2645992 0.9580272

B3.bias f4 [16]
000000 69 64 11 bf 00 b5 98 be 6e 0a 8b be b5 99 7b be
       -0.5679384 -0.29825592 -0.27156395 -0.24570353
000010 a1 88 07 bf a9 e7 ce be a8 d2 bd be 17 36 9f be
       -0.52942854 -0.40411118 -0.3707478 -0.31095955
000020 4b 64 00 bf f5 8c 75 be 30 74 b1 be db 9c 91 be
       -0.50153035 -0.23979552 -0.34658957 -0.28439984
000030 62 7f a6 be bb 8a 9e be 4a f0 c4 be d4 01 4d be
       -0.3251906 -0.30965218 -0.38464576 -0.20020229

B3.running_mean f4 [16]
000000 2d e0 64 bf e6 e9 94 bf 5e 32 2e bf 6d 06 89 bf
       -0.89404565 -1.163388 -0.68045604 -1.0705086
000010 e2 90 03 c0 08 06 fb bf 65 a4 bc bf 5a 1f 94 bf
       -2.055718 -1.9611216 -1.4737669 -1.1572068
000020 09 d6 00 c0 d5 04 eb bf 1a 03 9b bf 4f e5 dd 3f
       -2.0130637 -1.836085 -1.2110322 1.7335604
000030 6a dd 9c bf 5f f1 43 c0 b8 91 be bf e2 04 84 bf
       -1.225507 -3.0616071 -1.488822 -1.031399

B3.running_var f4 [16]
000000 90 d8 90 40 74 29 17 40 e7 36 4c 40 09 2a 52 40
       4.526436 2.361905 3.190851 3.2838156
000010 30 74 c7 40 27 e0 88 40 4e b9 59 40 92 fe 25 40
       6.232933 4.2773623 3.401935 2.5936627
000020 ce e7 84 40 bf c6 27 40 6a 73 9c 40 7d cc 1a 40
       4.1532965 2.6215055 4.8890886 2.418731
000030 ae e7 4f 40 96 07 83 40 1a af 82 40 cc d9 61 40
       3.2485156 4.094676 4.0838747 3.5289183

S5.weight f4 [120, 400]
000000 3d ba 4f bd a2 81 03 bd 9e 45 1f bc 75 26 8b 3d
       -0.05071472 -0.03210605 -0.009721188 0.067944445
000010 b4 15 85 3c 47 a3 ac bd 31 5a 91 3d ce e3 23 bd
       0.0162457 -0.0842958 0.07097281 -0.040012173
000020 0c 7a d1 bc 86 87 8c 3c a0 5f 15 3b 8b 11 b0 bd
       -0.025570892 0.017154466 0.0022792593 -0.08597096
000030 20 df 9a bd 53 79 12 3d f4 24 ac bc 23 62 a5 bc
       -0.07562089 0.035760235 -0.021013714 -0.020188397
000040 e0 fc 96 bd b9 7e 24 bd c0 96 53 bc d8 3b 06 3d
       -0.07372451 -0.040159915 -0.01291436 0.032771915
000050 d7 0c 0e bc 18 ed 9d 3c e9 3f a7 3d fc 39 4f 3d
       -0.008670053 0.019278094 0.08166487 0.050592408
000060 7c f8 d5 3c fb aa b5 bd e5 a1 ca 3d 99 2e 20 3d
       0.026119463 -0.088705026 0.0989416 0.03910694
000070 ae eb 60 3b ec 24 38 bd 1c 15 39 3e ed e1 d7 bc
       0.0034320164 -0.044957086 0.18074459 -0.026352847
000080 61 11 8a bd 20 10 96 3c e9 63 a2 3c 6d 47 be 3d
       -0.06741596 0.018318236 0.019823031 0.09290967
000090 b4 c2 95 3d 1d 8c e8 3b f0 b9 17 3c 33 c4 2f 3d
       0.07312527 0.007096781 0.00926064 0.04291172
0000a0 9c 9f 33 3e 9f 8f da 3d 0f d3 c8 bd 60 b8 b8 3b
       0.17541355 0.10671925 -0.09805881 0.0056372136
0000b0 97 1e e2 3d ee 52 35 3e 94 43 6c 3b 5e 40 e9 bd
       0.11040991 0.17707416 0.0036051022 -0.1138923
0000c0 0f 40 37 bd 20 f2 d8 3d 6a f7 ed 3c b0 df 93 be
       -0.044738825 0.10593057 0.02904864 -0.28881598
0000d0 b6 6c ed 3d 1e 80 44 3c 24 60 88 bd 42 ea 17 3d
       0.115930006 0.011993436 -0.06658962 0.03708864
0000e0 8f 19 23 bd ec a3 a0 ba c4 06 1e 3d 86 45 34 3c
       -0.039819296 -0.0012255884 0.03858067 0.011002904
0000f0 7a 0c 0b bd 8b eb 72 bd c7 f0 03 3d 34 2b 46 3c
       -0.033947445 -0.059306663 0.032212045 0.012095261
000100 19 d3 ef 3d e8 c2 59 bd 3c 11 c3 3d 15 2f 73 bd
       0.117101856 -0.053164393 0.095247716 -0.059371073
000110 d3 72 d1 3b 0e 1c 82 bd 21 78 22 3e 61 d5 f0 bc
       0.006391862 -0.06353007 0.15866138 -0.029398622
000120 63 52 c8 3b 5a 25 14 3c ee e6 8c bd 47 36 a7 bc
       0.006113337 0.009042108 -0.06879984 -0.020411624
000130 29 a6 03 bd e8 96 2d bd b9 2d fd 3d cd 2d 81 3c
       -0.032140885 -0.042380244 0.123622365 0.01576891
000140 e6 7e e9 3c 18 60 b7 bc c1 89 68 3d 07 70 00 bb
       0.028502893 -0.022384688 0.056771997 -0.0019598024
000150 d8 05 53 bc 85 a9 5f bd 23 80 d8 3d 5d b0 70 bc
       -0.012879811 -0.054605026 0.10571315 -0.014690486
000160 58 ae d5 3c 5c 15 bc bd c7 8e 81 3c a9 de 90 bd
       0.02608411 -0.091837615 0.015815152 -0.07073719
000170 f8 cf 8b 3d d3 83 9b 3d ea 22 28 bc f7 df cb 3c
       0.06826776 0.07593503 -0.01026223 0.024887068
000180 1f f7 8a 3d 76 d6 b2 bd 63 6a fe 3c 8f 8a 65 3d
       0.06785416 -0.087323114 0.031056589 0.056040343
000190 d3 cb c7 bb 0c a6 2d 3d 47 4e ad 3d e0 38 f0 bd
       -0.006097296 0.042394683 0.08462196 -0.11729598
0001a0 c5 ee 4e bd e9 31 1f 3d 2c c2 d9 3d f7 b0 16 be
       -0.050520677 0.038865957 0.106327385 -0.14715944
0001b0 77 0a 12 3c 19 5b 10 3e 40 31 86 3d 88 16 ae bc
       0.008913628 0.14097251 0.065523624 -0.021250978
0001c0 27 57 da bd aa 19 5e bd 78 36 4b bd 7a 2e d4 3d
       -0.10661154 -0.054223694 -0.049612492 0.10360427
0001d0 11 01 1e 3b 00 0b 0a be 76 a8 79 bd b1 fe 33 3d
       0.0024109522 -0.13480759 -0.060951672 0.043944065
0001e0 ff df 2a bb 47 08 90 3d cc bf bb bd c2 c5 21 bd
       -0.0026073453 0.07032829 -0.09167442 -0.039495237
0001f0 71 13 03 3e 54 03 b5 3c d9 99 0e bd fe 24 8c bd
       0.12800385 0.022096314 -0.03481469 -0.06842993
000200 da 5a 5d 3d e3 c9 92 3d 93 a7 b5 3d 0b 00 03 bd
       0.05404172 0.07167413 0.08869853 -0.031982463
000210 90 b9 7a 3d 46 9e 53 3d 72 53 db 3d 78 1f 7b bb
       0.061212122 0.051664613 0.10709275 -0.0038318317
000220 6e 21 1c be 46 e8 57 3c 04 46 be bd 44 5f 38 bd
       -0.15247127 0.013177937 -0.09290698 -0.045012727
000230 37 a9 8b 3d d7 16 f1 bd ac 90 57 bd ec 6b 1f bd
       0.068193845 -0.117719345 -0.052628204 -0.03892128
000240 f9 6c 5b bd 42 31 51 bd ba 3b d8 3d 4d 75 0a be
       -0.05357072 -0.051072367 0.10558267 -0.13521309
000250 4f 90 5c bd ae 3a 99 3d e1 0e b2 bd 2a 8c f6 bc
       -0.05384856 0.074818954 -0.08694244 -0.030096132
000260 91 b2 3d bb 77 72 63 3c 38 c2 ff 3c 9e 6f 61 3d
       -0.0028945545 0.013882271 0.03122054 0.055038087
000270 07 38 47 3d 46 e8 5c 3d 2b 69 07 bd 32 31 a5 bd
       0.048637416 0.05393245 -0.03305928 -0.08066024
000280 ec 4d 41 bd 0a e3 70 3d 45 08 2e 3d 77 96 4c 3c
       -0.047193453 0.05881027 0.042488355 0.0124870455
000290 a6 19 c3 bd f7 f2 2a 3d d1 74 9a bd 69 d5 83 3d
       -0.095263764 0.041735616 -0.07541812 0.06437189
0002a0 cc 0c b9 bd 0b ed 11 3d cb e0 95 3c fa a3 a3 3d
       -0.09035644 0.035626452 0.018295666 0.079902604
0002b0 8b 7d 98 bd 9f 85 a2 3d 16 7b 18 be 7a 8e b2 bc
       -0.074458204 0.079356425 -0.14890704 -0.021796454
0002c0 c4 9b 71 bd 1b 82 d1 3d 49 6f e6 ba 95 be 9f bd
       -0.05898644 0.10229894 -0.0017580773 -0.078000225
0002d0 05 26 89 bc 9d 0a 8c 3d 46 a6 25 3e 02 88 87 3d
       -0.016741762 0.06837962 0.1617671 0.06617738
0002e0 8e 75 90 3d 79 db 0a bc bb 73 33 bb fa 8b a2 3d
       0.07053672 -0.008475178 -0.0027382213 0.07936855
0002f0 73 11 79 3c 1f 96 74 3c e4 68 8e 3d 9c c9 c0 bd
       0.015201914 0.01492837 0.069536 -0.09413454
000300 8a d0 07 3d 9a c7 e9 3d 70 6e fd 3d 9f 6f f4 3d
       0.033157863 0.11415024 0.1237458 0.119353525
000310 a6 20 73 bc c8 41 17 bd ac e2 35 3d 11 55 22 bc
       -0.014839327 -0.03692797 0.044405624 -0.009907977
000320 79 f9 ab bb a8 c1 17 3d 24 64 9c bd 3b 5f 62 bd
       -0.0052482453 0.03704992 -0.07636288 -0.0552666
000330 1e 9b 41 3d 46 36 18 3e e3 91 96 bd 11 98 96 3c
       0.047267072 0.14864454 -0.073520444 0.018383058
000340 84 3b 7b bd 12 b8 5b 3d 83 17 7b bd 73 0f b8 bd
       -0.061336055 0.05364234 -0.06130172 -0.08987322
000350 ae cf b5 bd 07 3f 96 3d c8 49 a1 bd f2 86 d2 bd
       -0.088775024 0.0733624 -0.07875401 -0.10279645
000360 10 6f b1 3d 37 33 6d 3d 2e ec 38 bd a8 70 86 3d
       0.086637616 0.05791017 -0.045147114 0.06564456
000370 bf c7 92 bc ab bf de 3d 5c 7a 12 3c f1 a1 59 bd
       -0.017917512 0.108764015 0.008940306 -0.053132955
000380 a4 98 ce 3d 65 ee 0a be 10 b1 bb 3d 12 cd 68 3d
       0.10087708 -0.13567503 0.09164631 0.056836195
000390 9d b5 60 ba 90 8f f4 3d 8a b3 bf 3d 9f 0b b2 3a
       -0.00085719844 0.11941445 0.09360416 0.0013583786
0003a0 03 80 b3 3d 2a f5 9f bd 14 28 88 3d 45 f9 33 3d
       0.08764651 -0.07810433 0.06648269 0.043938894
0003b0 63 32 04 3e ea e3 23 bd 63 f4 98 3c c9 df 8f bd
       0.12909846 -0.040012278 0.01867122 -0.070251055
0003c0 f3 96 23 3d f8 ea 6d 3d 2d 04 94 3d df 36 31 bd
       0.03993888 0.05808541 0.07227359 -0.04326522
0003d0 c1 fe cc bb a3 43 1b 3c e6 64 5c 3d 9e 0e b5 ba
       -0.006255955 0.009476575 0.05380716 -0.001381356
0003e0 b6 83 9f 3d 48 6f 6f bc 5f da b1 bd 46 b6 89 3b
       0.07788794 -0.014613934 -0.08684229 0.004202637
0003f0 f5 a8 3b 3d 55 1e e3 3d 66 5a 8d 3d 01 b8 e0 bc
       0.045815427 0.1108977 0.06902008 -0.02743149

S5.bias f4 [120]
000000 18 4c 6a bc b2 36 c8 3c d0 90 38 bd 0d d0 2c bd
       -0.014300369 0.024440143 -0.04505998 -0.0421906
000010 08 d8 2e bc fa 43 e8 3c 42 9b df 3c 38 30 4c bd
       -0.010671623 0.028352726 0.027295712 -0.049850672
000020 09 32 09 3d 2a b4 b7 3c e0 c0 4f 3b fa 1f b3 bc
       0.033494983 0.022424776 0.0031700656 -0.021865834
000030 ea 86 fe bc f8 42 24 bd 15 ed 49 bd a0 94 51 bc
       -0.031070191 -0.04010293 -0.049298365 -0.012791783
000040 a3 75 2a 3d 09 1e 33 3d 00 7a f1 bc 18 f0 9d 3b
       0.041616093 0.043729816 -0.02947712 0.004819881
000050 14 10 14 bc ed 2a 31 3d 32 65 3f bd 00 6d e5 ba
       -0.009037036 0.043253828 -0.046727367 -0.0017503798
000060 4f 7d 6d b9 f2 e7 a6 3c 8c c8 3d 3c da 5c 85 bc
       -0.00022648762 0.020374272 0.011583459 -0.016279627
000070 b1 71 0b 3d 20 c1 57 3b 9e 71 92 3c 94 4c 3d 3c
       0.03404397 0.0032921508 0.017876443 0.011553902
000080 18 f8 45 bd b9 31 3e ba fb 98 29 3d 2c dd 72 bc
       -0.048332304 -0.0007255334 0.04140566 -0.014823239
000090 c8 5e 24 bc 50 5f ad bb a0 52 90 bc f4 d4 22 bc
       -0.010032363 -0.005290903 -0.017617524 -0.009938467
0000a0 e1 fc 31 3d 42 49 47 bd 42 76 9d 3c b2 68 ca 3c
       0.043454055 -0.04865385 0.019221429 0.024708126
0000b0 3a cd 29 bd f6 bd f6 3c 98 a6 52 bc 80 d1 e8 bc
       -0.041455485 0.030119877 -0.012857102 -0.02842021
0000c0 94 47 54 3c 80 b1 a5 bc 2c 3c 6b bc ca cb d5 3c
       0.012956519 -0.02022624 -0.014357608 0.02609815
0000d0 7c 0e 82 bc 70 77 c2 bc 18 2a 80 3b 16 c2 f5 3c
       -0.015876047 -0.023738593 0.003911268 0.029999774
0000e0 48 8d 39 3c e4 59 68 3c 4d 00 b4 bc 45 79 2f bd
       0.011325188 0.014181588 -0.0219728 -0.04284026
0000f0 9d 80 fa bc 01 0d 48 3d 3f 52 3e 3d 58 ed 6d bc
       -0.030578906 0.048840526 0.046465155 -0.014521919
000100 1a 13 af bc 41 f7 38 3d 80 70 37 3c 97 7e 3b bd
       -0.021371413 0.045157675 0.011196256 -0.045775022
000110 d6 d3 1b bd 61 bf 3f 3d ce 5f 1b bd 20 6e 2d bb
       -0.03804382 0.046813373 -0.037933163 -0.0026463345
000120 d2 c3 80 3c 3e e9 ce 3c 33 02 b3 bc 07 eb e4 bc
       0.015718374 0.025257703 -0.021851635 -0.027944101
000130 43 7d 05 3d 7b 05 18 3d c8 28 32 bc 52 38 f5 3c
       0.032590162 0.0371146 -0.010873981 0.029934082
000140 cc 6a 02 3c 03 5b e1 bc 00 25 c7 ba af 8a 36 bd
       0.007960033 -0.027509218 -0.0015193522 -0.044565853
000150 c2 fe fc 3c 0b 11 35 3d 68 79 98 bb a1 c5 28 3d
       0.030883197 0.044205707 -0.0046531446 0.0412041
000160 df 1f 36 bd ca a0 d4 3c 77 56 b9 bc 44 e7 b5 3a
       -0.04446399 0.025955576 -0.022624237 0.0013878127
000170 59 1d 19 3d 05 ab 13 bd 40 6c f2 bb d0 34 ec 3b
       0.037381504 -0.03605177 -0.0073981583 0.007208444
000180 32 1a 88 3c 30 36 cb bc 17 b5 31 bd 15 93 4b bd
       0.016614053 -0.024806112 -0.04338559 -0.049700815
000190 89 ee 15 3d 6d d6 15 bd 70 c9 a1 bb 52 2b ea 3c
       0.036604438 -0.036581445 -0.0049373433 0.02858511
0001a0 3d 82 34 3d fb 03 2c bd 90 c7 07 bd 34 f3 6e bc
       0.044069517 -0.041995984 -0.033149302 -0.014584351
0001b0 08 c0 0e bd fe a1 dc 3c d2 c9 c7 3c 62 2a dd 3c
       -0.034851104 0.026932713 0.024388228 0.026997749
0001c0 ce 4d 0f bd 5a 10 a0 bc 61 07 29 3d c0 e6 60 bc
       -0.03498631 -0.019539047 0.041266803 -0.01372689
0001d0 d7 86 e4 bc fd e0 05 bd 58 be 21 bd 17 1e 08 3d
       -0.027896328 -0.03268527 -0.039488167 0.03323182

B5.weight f4 [120]
000000 a9 2b 7e 3f f1 32 66 3f 25 29 6c 3f 68 e7 82 3f
       0.9928537 0.8992148 0.9225028 1.022687
000010 1b a4 64 3f ec 61 7d 3f ab d8 6f 3f fd a5 78 3f
       0.89312905 0.9897754 0.93689984 0.9712828
000020 55 44 7f 3f 06 af 7b 3f 6f 89 82 3f e5 ed 83 3f
       0.9971364 0.9831394 1.0198191 1.0306975
000030 16 a5 8c 3f 7a b7 3d 3f 9c 74 85 3f b8 31 8c 3f
       1.098788 0.7410809 1.0426211 1.0952673
000040 a9 dc 67 3f 92 3b 7f 3f 99 af 81 3f 2f 9a 7b 3f
       0.90571076 0.9970027 1.0131713 0.9828214
000050 9f 93 79 3f ef 0c 67 3f 0f f9 7e 3f fd 84 80 3f
       0.97490877 0.9025411 0.99598783 1.0040585
000060 72 ba 85 3f f7 b5 80 3f f8 6d 4a 3f ac 60 73 3f
       1.0447524 1.0055531 0.7907405 0.95069385
000070 68 d5 6c 3f 8e 78 86 3f 07 c9 6e 3f 58 ac 80 3f
       0.9251313 1.050554 0.93275493 1.0052595
000080 55 ff 8a 3f 06 8e 86 3f 0c 7f 60 3f df ce 77 3f
       1.0859171 1.0512092 0.8769386 0.96800035
000090 94 a4 7d 3f 12 e7 72 3f 33 0e 6b 3f 80 b8 87 3f
       0.9907925 0.94883835 0.9181854 1.060318
0000a0 71 ca 74 3f 81 4f 69 3f 23 0e 70 3f da e5 7d 3f
       0.956214 0.9113694 0.9377157 0.9917885
0000b0 b4 2f 7b 3f 10 75 81 3f f1 e7 78 3f 1c f1 69 3f
       0.98119664 1.011385 0.97228914 0.9138353
0000c0 98 64 70 3f 0f 04 80 3f ca fa 7d 3f fe 96 7c 3f
       0.93903494 1.0001239 0.992108 0.98667896
0000d0 9c 7b 7e 3f 9e 5c 7c 3f df 60 7b 3f 86 4d 85 3f
       0.9940736 0.9857882 0.9819469 1.0414283
0000e0 86 75 70 3f 35 b0 7a 3f c8 57 81 3f 10 81 75 3f
       0.93929327 0.9792512 1.0104914 0.9590006
0000f0 cb d5 7b 3f 33 a9 81 3f 33 06 77 3f 26 b1 7f 3f
       0.983731 1.012976 0.96493834 0.9987968
000100 fc 58 74 3f b2 0f 83 3f 4b ac 7f 3f f7 c5 83 3f
       0.9544828 1.0239165 0.99872273 1.0294789
000110 82 b3 7a 3f 10 e0 81 3f 78 4b 7f 3f 99 47 83 3f
       0.9793016 1.0146503 0.9972453 1.0256225
000120 8b ab 73 3f 9d 41 72 3f 87 80 87 3f f2 8a 7a 3f
       0.9518363 0.9463137 1.0586098 0.97868264
000130 12 39 5b 3f 16 31 84 3f b4 2a 86 3f fd 8b 6e 3f
       0.8563396 1.032748 1.0481782 0.93182355
000140 00 fe 72 3f 0c 5f 7f 3f 04 9f 7b 3f 64 de 6c 3f
       0.94918823 0.99754405 0.98289514 0.9252684
000150 70 f9 67 3f 6f a0 68 3f c4 6e 88 3f 42 3a 75 3f
       0.90614986 0.908698 1.0658803 0.9579202
000160 a2 1b 73 3f 70 b2 82 3f 4c b0 8b 3f 13 f6 8f 3f
       0.9496404 1.0210705 1.0913177 1.1246971
000170 a8 f6 7f 3f 9c 78 7f 3f 3e 88 77 3f b7 40 77 3f
       0.9998574 0.9979341 0.96692264 0.9658312
000180 aa ce 80 3f fb 7f 85 3f 09 07 7b 3f 10 81 83 3f
       1.0063069 1.0429682 0.9805761 1.0273762
000190 1f 70 80 3f 21 d0 80 3f fe af 78 3f c3 e5 7c 3f
       1.0034217 1.0063516 0.9714354 0.9878809
0001a0 6b 96 7f 3f 38 61 77 3f b4 21 6c 3f 57 f0 7f 3f
       0.99838895 0.9663272 0.92238927 0.99976104
0001b0 8e 9b 76 3f eb e0 82 3f f1 97 83 3f 91 5e 80 3f
       0.9633111 1.022489 1.0280744 1.0028859
0001c0 ea 75 71 3f 0f 29 69 3f 3d b8 80 3f e1 4d 82 3f
       0.9432055 0.91078275 1.0056225 1.0180017
0001d0 41 f0 66 3f 42 c3 80 3f d1 23 83 3f 70 0e 6f 3f
       0.9021035 1.0059588 1.0245305 0.93381405

B5.bias f4 [120]
000000 48 0b 7f be 38 17 52 be 00 87 a6 be 8d 59 c9 bd
       -0.24906647 -0.2051667 -0.32524872 -0.098315336
000010 35 a4 53 be 43 74 55 be 3c dd 97 be 62 8f a1 be
       -0.20668109 -0.20845132 -0.29660976 -0.31554705
000020 ba 34 bb be f3 2a 6f be 4e 36 48 be a9 d8 8a be
       -0.36563665 -0.23356228 -0.19551966 -0.27118424
000030 73 f6 1a be ec 6a 85 be 10 9c 84 be 68 f0 83 be
       -0.15133075 -0.26058137 -0.25900316 -0.25769353
000040 11 c0 bc be 14 25 87 be ee 56 a5 be 74 c7 24 be
       -0.36865285 -0.26395476 -0.32292885 -0.1609171
000050 11 f1 6d be 16 58 78 be 21 e6 a5 be 3e 94 73 be
       -0.23236491 -0.24252352 -0.32402137 -0.23787019
000060 d1 d2 24 be 7e 29 5d be 55 b1 0b be c9 fb 98 be
       -0.16096045 -0.2159786 -0.13641866 -0.29879597
000070 b4 d4 7b be 84 73 06 be 4d 7e 74 be e6 3a 73 be
       -0.24592859 -0.13130003 -0.23876305 -0.23752937
000080 59 e2 36 be 7b 6f 20 be 4e 8c 87 be 4a 3a 83 be
       -0.17859782 -0.15667526 -0.2647423 -0.2563041
000090 98 7c 9c be b5 35 82 be 32 9b b4 be fc bc 5d be
       -0.30563807 -0.254316 -0.35274655 -0.21654123
0000a0 69 0a 55 be 05 4d 50 be fd c6 48 be 6f 6f 88 be
       -0.20804752 -0.2034188 -0.19607158 -0.26647517
0000b0 81 32 89 be 02 17 5d be ff 0b 9d be f8 db 7b be
       -0.26796344 -0.21590808 -0.30673215 -0.2459563
0000c0 d1 91 ba bd 17 78 9b be 36 c6 8c be fa 34 31 be
       -0.091098435 -0.3036506 -0.27494973 -0.17305365
0000d0 4d cd 6a be 60 14 a2 be 0b ca b9 be 8a 50 5c be
       -0.22929879 -0.3165617 -0.3628696 -0.21515098
0000e0 10 a3 2a be db 28 6c be 56 f8 87 be 2e 77 d1 bd
       -0.16663766 -0.2306246 -0.26556653 -0.1022781
0000f0 24 71 a6 be 7b f6 83 be f7 c5 82 be 2e 68 67 be
       -0.32508194 -0.25773987 -0.2554166 -0.22598335
000100 67 3e 88 be 17 5f 62 be 29 83 3e be 8c 03 b8 be
       -0.2661011 -0.22106586 -0.18604721 -0.35940206
000110 41 5b 92 be 21 54 ac be fa f8 c3 be 63 00 2a be
       -0.28585246 -0.33657935 -0.38275892 -0.1660171
000120 fa f7 71 be 01 c1 5c be 0b 4f 9f be d0 f4 92 be
       -0.23629752 -0.21558 -0.31114992 -0.28702402
000130 98 36 a2 be 73 e3 4d be e8 01 5d be ce 86 a9 be
       -0.31682277 -0.20106296 -0.21582758 -0.3311066
000140 04 4d 16 be 33 81 54 be 92 24 65 be 37 66 66 be
       -0.14677817 -0.2075241 -0.22377232 -0.2249993
000150 d3 5b 64 be 38 88 7e be 9f a0 25 be 06 73 7d be
       -0.22300653 -0.24856651 -0.16174553 -0.24750909
000160 df 20 68 be 69 c6 92 be 5b f9 94 be c7 8e 3e be
       -0.2266879 -0.28667 -0.29096493 -0.18609153
000170 35 aa 7e be d9 25 87 be f4 9f 4c be 23 d4 07 be
       -0.24869616 -0.26396063 -0.19982892 -0.13264517
000180 0c 39 a8 be ac 09 a5 be 2e 5c 2d be 45 f3 36 be
       -0.32856023 -0.32233942 -0.16929695 -0.17866237
000190 91 2a 44 be 98 7f 69 be fd 58 98 be d8 d4 8d be
       -0.19156863 -0.2280258 -0.29755393 -0.2770145
0001a0 54 24 9e be 47 77 4f be db 3d 86 be a7 20 83 be
       -0.3088709 -0.20260344 -0.26219067 -0.2561085
0001b0 ce 77 a2 be 68 f4 10 be 8d 55 85 be 97 e9 cb bd
       -0.3173203 -0.14155734 -0.26041833 -0.09956663
0001c0 6d 85 5a be 68 68 9c be 15 7c 1f be 73 0b 35 be
       -0.2133996 -0.30548406 -0.15574677 -0.17680149
0001d0 51 37 67 be a5 ed 1e be dd 85 9a be 15 a0 32 be
       -0.22579695 -0.15520342 -0.30180255 -0.17443879

B5.running_mean f4 [120]
000000 e3 fc 1f 3e da 2e f3 be a3 7f c0 bd 56 49 3e bf
       0.15623812 -0.47496682 -0.09399345 -0.7433065
000010 ad 8f 7a bd dc 9a 03 be 5f cf 6b bf 0a 80 c6 be
       -0.061172176 -0.12852043 -0.921133 -0.3876956
000020 74 f9 e8 be 48 bd 2c be a7 62 0c bf 70 8f ed 3c
       -0.45502818 -0.1686908 -0.5483803 0.02899906
000030 3c 56 9e be 8a 6e c7 be 64 cc 9e be a3 dd d5 be
       -0.30925167 -0.38951522 -0.31015313 -0.41770658
000040 7a 2d 1d bf dd 23 69 bf 65 61 e3 be 41 45 e0 bd
       -0.61397517 -0.9107035 -0.44410244 -0.10950709
000050 68 7e 23 bf ae c1 34 3f 2c 38 36 be 97 b7 4c be
       -0.63864756 0.7060803 -0.17794865 -0.19991909
000060 19 08 39 3d bb 5a 5f be 5b 25 4d bf a1 0d 6e bf
       0.04517374 -0.21811955 -0.80135125 -0.92989546
000070 0b 52 90 3e ee 3d 80 3d 36 f5 b5 3e da 0c 95 3e
       0.28187594 0.06261812 0.35538644 0.29111367
000080 f7 1d 54 bf 11 3f f5 be f1 10 82 bf 3a c3 9f 3d
       -0.8285822 -0.47899678 -1.016142 0.078009084
000090 56 24 ab 3d 50 bc 2d be bc c2 9a bd 79 02 58 3e
       0.0835654 -0.16966367 -0.07556674 0.21094693
0000a0 18 e7 9d be fc 21 be be 2f a7 c0 be 51 46 1a 3e
       -0.30840373 -0.37135303 -0.3762755 0.15065886
0000b0 ee 73 01 be 05 89 1f 3d fd c6 94 be 13 7a d1 3b
       -0.1264188 0.03894903 -0.29058066 0.006392726
0000c0 0c 51 d4 be 03 f4 c4 be 59 fa 13 3f 1f 78 67 bf
       -0.41468084 -0.38467416 0.57803875 -0.90417665
0000d0 21 f3 46 be 55 cb 30 bc f8 b7 37 bf 2a 8e f9 be
       -0.19428684 -0.010790666 -0.7176509 -0.48741275
0000e0 46 01 40 bf 06 ae 33 bf 42 ce 8e 3e 84 eb 6e bf
       -0.75001943 -0.70187414 0.27891737 -0.9332812
0000f0 30 51 3c bf 58 e1 8a 3f 2a fb 2a 3f 2a 19 25 be
       -0.7356138 1.085002 0.66789496 -0.1612288
000100 fa 17 94 3c f5 1d a6 be 89 3c 0c bf ac d9 bb bd
       0.01807784 -0.3244473 -0.5477987 -0.09172377
000110 d2 83 12 bf 85 2a 1f 3e b9 f4 c7 be 36 f6 be be
       -0.5723239 0.15543564 -0.39053896 -0.3729722
000120 42 8d 0f 3e 36 30 85 3e 47 21 90 be 76 3e 5e 3e
       0.1401873 0.26013345 -0.2815039 0.21703514
000130 ad 8d 9d bd bf 8c 55 be 34 85 55 3e a2 68 fa 3c
       -0.07693038 -0.20854472 0.20851594 0.030567471
000140 0b d7 ee be 99 ea 25 be 0e 2d cb be 11 35 ea bd
       -0.4664844 -0.16202773 -0.39682811 -0.11435903
000150 02 30 99 3d 37 20 9b 3e dd 87 62 3e f0 5e 94 bf
       0.0747986 0.30298015 0.2212214 -1.1591473
000160 c1 2b 68 3e 56 a5 25 3e 9c c2 dc be 42 77 63 3e
       0.22672941 0.16176352 -0.43117225 0.22213462
000170 91 8e ac be ac 2a 08 bf 10 66 fe bd a7 28 56 be
       -0.3370252 -0.5319011 -0.124218106 -0.20913945
000180 36 11 1d 3e 1b 47 a0 bf 68 7e 71 bd c9 61 2c 3e
       0.15338597 -1.25217 -0.05895844 0.16834177
000190 6b 40 93 be 9a ef e4 3e d4 bc 09 bf da e9 bc 3e
       -0.28760085 0.4471405 -0.53803754 0.36897165
0001a0 66 73 86 be 48 fa 19 bf d7 d0 b9 3e c5 17 82 3e
       -0.26259917 -0.60147524 0.36292145 0.2540876
0001b0 0d fd 83 3e 00 9a a7 bc 11 6f 2e 3e 45 6a 00 be
       0.25779 -0.020459175 0.17034556 -0.12540539
0001c0 4f c8 c6 be 64 17 ac be 32 69 1e be 73 4a 07 bf
       -0.38824698 -0.33611596 -0.15469816 -0.52847975
0001d0 ec ae d4 be f8 80 fa be 82 64 21 bf 31 04 39 be
       -0.41539705 -0.4892652 -0.6304399 -0.18068005

B5.running_var f4 [120]
000000 7c 92 4c 3e 5c 51 fb 3e b2 76 6d 3e 65 a3 0a 3f
       0.19977754 0.4908551 0.2318981 0.5415557
000010 52 b1 49 3e 19 93 98 3e 5a e2 9e 3e 7a 11 9c 3e
       0.19696549 0.29799727 0.31032068 0.30482084
000020 33 42 60 3e 57 e4 81 3e 8c 36 86 3e c6 27 79 3e
       0.21900253 0.25369522 0.2621349 0.24331579
000030 1b 7d 8b 3e 35 8a e6 3e 6a 7b 9d 3e 38 1e 05 3f
       0.27243885 0.4502732 0.3075822 0.51999235
000040 a8 40 68 3e 8c 5a 8c 3e 9f cc 8e 3e 1b 8d 69 3e
       0.22680914 0.27412832 0.27890489 0.22807734
000050 82 fc ca 3e 89 50 86 3e 3d 2a a1 3e 1d 75 99 3e
       0.39645773 0.26233318 0.31477538 0.29972163
000060 86 39 e2 3e 09 91 b3 3e 15 fa 9e 3e 70 ba 94 3e
       0.44184512 0.3507159 0.31050172 0.2904849
000070 c4 c6 bb 3e e6 c9 07 3f 03 9a 76 3e b8 9f a7 3e
       0.36675084 0.5304245 0.24082188 0.32739043
000080 26 f1 ed 3e c4 fb 8b 3e cd 08 86 3e ad 07 86 3e
       0.46473044 0.2734052 0.2617859 0.2617773
000090 7b 86 5c 3e af 17 92 3e 8a e9 63 3e 48 c8 a4 3e
       0.21535675 0.28533694 0.22257057 0.32184052
0000a0 64 9a d6 3e dc 6a 91 3e 47 b5 d3 3e 5d 11 a5 3e
       0.41914666 0.2840184 0.4134924 0.3223981
0000b0 af 8f 82 3e c1 40 8d 3e 5c ea 97 3e c7 58 9b 3e
       0.25500247 0.27588466 0.2967099 0.3034117
0000c0 72 1e 9c 3e a1 ec 84 3e 35 44 89 3e a0 08 85 3e
       0.30491978 0.25961784 0.2680985 0.25983143
0000d0 ee e9 85 3e 15 a5 2b 3e 1f a0 ad 3e 0d 35 8b 3e
       0.26155037 0.16762193 0.33911225 0.27188912
0000e0 91 a3 bf 3e 8e 01 df 3e 1f ff 6d 3e 88 27 a4 3e
       0.3742948 0.43555874 0.23241852 0.3206141
0000f0 04 6b bf 3e f5 07 b1 3e c6 25 c1 3e 32 59 b2 3e
       0.37386334 0.34576383 0.3772413 0.34833676
000100 a7 2c 72 3e 19 74 83 3e 24 d3 aa 3e 98 fb ba 3e
       0.23649846 0.25674513 0.33364213 0.36520076
000110 47 a6 5d 3e f2 87 95 3e 9f 30 97 3e 4f 7f a2 3e
       0.21645461 0.2920528 0.29529282 0.31737754
000120 c9 07 4c 3e b3 14 b2 3e 9d 9f 27 3e ea 1e 94 3e
       0.19924845 0.34781417 0.16369481 0.28929836
000130 38 da 59 3e a3 ef a0 3e 89 0b bc 3e e3 eb 3d 3e
       0.2127465 0.31432828 0.3672755 0.18547015
000140 29 85 5a 3e d8 57 35 3e 4b c3 80 3e 87 43 bf 3e
       0.21339859 0.17709291 0.25148997 0.37356207
000150 52 be 89 3e 2d 9d 81 3e 27 5c dc 3e c0 eb 8d 3e
       0.26903015 0.25315228 0.43039057 0.27718925
000160 35 b9 c4 3e 59 e8 b4 3e 5b b7 a7 3e 05 78 51 3e
       0.38422552 0.35333517 0.32757077 0.2045594
000170 22 3c 9d 3e 38 c8 7a 3e 0b 6f 38 3e 28 ee be 3e
       0.3070994 0.2449044 0.1801111 0.37291074
000180 1d c5 4a 3e 93 00 c0 3e 36 06 ac 3e ef ce d4 3e
       0.19801755 0.37500438 0.3359849 0.41564128
000190 8d 4c aa 3e 33 f8 e4 3e 08 0a 6f 3e 6e f3 5b 3e
       0.3326153 0.4472061 0.2334367 0.2147958
0001a0 61 cd 4b 3e 6c 88 c7 3e 8f 44 72 3e 3f 45 ab 3e
       0.19902565 0.3897127 0.23658966 0.33451268
0001b0 2e 05 8f 3e 8f 09 56 3e 8d 93 57 3e d7 f8 ce 3e
       0.2793364 0.20902084 0.2105238 0.40424225
0001c0 dd e9 a9 3e e5 06 85 3e 00 3d 74 3e af cd 70 3e
       0.33186236 0.25981823 0.23851395 0.23515962
0001d0 20 ae 6a 3e db 99 93 3e d2 fe b2 3e 34 72 98 3e
       0.22917986 0.2882832 0.34960037 0.2977463

S6.weight f4 [84, 120]
000000 6c 4c ec 3d 60 7d 38 3e f7 2b 25 3d 9b 8e 46 be
       0.11538014 0.18016577 0.04032513 -0.19390337
000010 b6 d0 f8 3d d2 73 65 3d 7b 6e d0 bd a3 50 55 bc
       0.121491835 0.056018658 -0.101773225 -0.013019714
000020 8d 49 2d be 1b 7c 8b 3d e2 43 c3 bd c0 2b e3 3b
       -0.16922589 0.068107806 -0.09534432 0.0069327056
000030 fb 0d 89 bd 60 98 46 3e c9 4d 75 ba 93 b0 44 bd
       -0.0669212 0.19394064 -0.0009357599 -0.048019957
000040 f0 54 8e 3d aa 78 a9 3c 92 6f 97 bc 65 00 af bd
       0.06949794 0.02068742 -0.018485818 -0.08544997
000050 38 e1 0a bd 2d 2d 79 3c 5f 0c 39 be 07 25 a0 bd
       -0.03390619 0.015208525 -0.18071125 -0.078195624
000060 66 7d 56 be 55 7b 12 3d 2f 85 74 ba 3a 64 d0 bd
       -0.20946273 0.03576215 -0.0009327707 -0.10175367
000070 d7 74 d5 bd ae 46 c1 3d d8 35 ea bd 42 6b 82 3c
       -0.10422676 0.09437309 -0.11436051 0.015920285
000080 4a 5d 88 be 95 65 c1 bd 01 2f 57 3c 25 de d4 bd
       -0.26633674 -0.09443203 0.013133765 -0.10393933
000090 b8 0d 3e be a0 a3 eb 3d 39 80 81 bc ee f3 24 3e
       -0.18559921 0.11505818 -0.015808212 0.16108677
0000a0 02 02 0c bd 92 47 60 3e 27 75 be bb 26 48 b4 3d
       -0.034181602 0.21902302 -0.0058123055 0.08802824
0000b0 e3 40 ce bc 16 2e bb 3d 70 17 0c 3e 90 6c 3c be
       -0.025177425 0.091396496 0.13680816 -0.18400788
0000c0 2d b8 15 3d 45 12 0a be 02 a7 89 3d 7a 5f d6 bb
       0.036552597 -0.13483532 0.06721307 -0.0065421434
0000d0 fa a1 27 bd 01 9d 61 3c c8 0d 26 be 4c 37 32 3e
       -0.040925957 0.013770343 -0.16216195 0.17403907
0000e0 cb 69 95 3d 57 99 09 3e dd 9b 06 be b6 a2 42 3e
       0.07295569 0.13437401 -0.13145395 0.19007382
0000f0 cf 3c 44 3d d4 4e 69 bd 25 dc b1 3d 3a 9d 82 bd
       0.047909554 -0.056959942 0.08684567 -0.06377645
000100 61 ef cc bd a3 72 91 bd 9f be 46 bd 3b 3a aa bd
       -0.100065954 -0.07101943 -0.048521634 -0.08311888
000110 e1 92 b6 3c c5 71 28 bd 45 be ad bd 8e 77 28 bd
       0.022286834 -0.041124124 -0.08483557 -0.04112964
000120 e8 9e b3 bd 6a 5e 11 3e d9 bd 8c 3d 67 5b 5d bd
       -0.08770543 0.14196172 0.06872148 -0.054042246
000130 33 b4 91 3d 4b 01 1e bc 6d 0c cd 3d c4 ab 68 3d
       0.071144484 -0.009643863 0.10012136 0.056804433
000140 84 26 24 3e dd f7 4f 3c 69 2e ac bd ba 02 40 be
       0.16030318 0.012693373 -0.084072895 -0.1875104
000150 0b a9 31 3e f2 51 0f be 3e 65 ae bc c0 d8 43 3d
       0.17349641 -0.13996103 -0.02128851 0.04781413
000160 09 bc b4 3d fc 62 d7 bd 55 ea 20 bc 78 9c 55 ba
       0.08824927 -0.10516927 -0.009821494 -0.0008148621
000170 9a ad 65 bd 08 6a 3a be 51 54 15 3e 36 49 c5 3e
       -0.056073762 -0.1820451 0.14582945 0.38532418
000180 63 b6 8e bd 6b c9 79 ba 2d 01 ed 3d ad 9f a3 be
       -0.06968381 -0.000952861 0.1157249 -0.3195776
000190 43 26 58 3d 60 81 dc 3d f3 60 10 be 63 d8 b1 3d
       0.052770864 0.10766864 -0.14099483 0.086838506
0001a0 bb 53 77 bd 54 f2 10 3d 83 b9 09 be 38 87 43 bd
       -0.060382586 0.035387352 -0.13449673 -0.047736377
0001b0 b0 2c a6 be 7c e9 ba 3d 05 df af bd dc c5 0d be
       -0.3245597 0.09126565 -0.085874595 -0.13845009
0001c0 c6 f7 42 bd 88 1c 80 3d f6 01 c6 bc df 99 b9 3c
       -0.047599576 0.06255442 -0.024170857 0.02265638
0001d0 48 8a d3 3d c4 99 02 3d d6 99 3e 3e ce 3b 17 bd
       0.103291094 0.031884924 0.18613371 -0.03692227
0001e0 b3 d9 17 be 58 75 e4 bc 27 f3 2d be e3 1c 8e 3c
       -0.1482914 -0.027887985 -0.16987287 0.017347759
0001f0 f3 af bf 3d df e4 3b 3e b5 71 f5 bd 78 fc 09 be
       0.093597315 0.18349026 -0.119845785 -0.13475215
000200 84 96 07 bd 13 5c bc bd e4 b0 5c 3c b5 06 a8 bd
       -0.033102527 -0.09197249 0.013469908 -0.08204404
000210 94 9d 10 3e 35 76 70 3d 02 e8 c9 3d e8 ff 82 3e
       0.14122611 0.05870648 0.09858705 0.25585866
000220 b5 ed 54 be 15 99 29 bd d1 3f 3c be 5a 9c 00 be
       -0.20793803 -0.041405756 -0.18383719 -0.12559643
000230 f9 2a 1f bd 4f 20 ee bd c3 52 cb 3d 34 61 d2 bd
       -0.03885934 -0.11627256 0.09927895 -0.10272446
000240 aa b6 2b 3e 53 f5 1d 3e 41 4e 40 be 84 66 7e bd
       0.167689 0.15425615 -0.18779851 -0.062109485
000250 94 f4 c6 3d 85 ac 40 bd f1 45 85 bd 75 d4 ec 3b
       0.09714618 -0.047039527 -0.06507481 0.0072274753
000260 07 ca 39 bc 27 21 d9 3d 04 7b 38 bc b7 42 4e 3d
       -0.011339671 0.106020264 -0.011259798 0.050356593
000270 51 6c a2 3d e9 51 a8 3d a1 cb b9 bd e6 47 25 3b
       0.07930816 0.08218748 -0.09072042 0.0025219857
000280 7e 01 17 be d1 96 6b bd 23 e1 85 3d ee c3 f0 bd
       -0.14746663 -0.057516877 0.06537082 -0.117561206
000290 05 c2 dd bd 91 dc 69 3d 05 00 af bd 7d 75 ac 3c
       -0.10828022 0.057095114 -0.085449256 0.021052117
0002a0 e2 b8 90 be 95 41 a6 bd 77 38 25 3e e2 85 ee bc
       -0.28266054 -0.081179775 0.16134821 -0.029116575
0002b0 22 4b 82 bb 5a c4 da 3d b2 0b 42 3e b7 3c 0b be
       -0.0039762417 0.10681982 0.18949774 -0.1359738
0002c0 f3 5b 87 3d 61 73 08 3e 1b ba 16 3e 66 fc 83 3d
       0.06609335 0.13325264 0.14719431 0.064446256
0002d0 07 fa 99 bd bd d6 2f be 18 fc b1 3c 06 5e 4b 3e
       -0.07518392 -0.1717176 0.021726653 0.19860086
0002e0 c9 50 3f 3d 08 93 d9 bc 62 2a d3 3d 73 22 19 3e
       0.046707902 -0.026559368 0.10310818 0.14954548
0002f0 01 44 75 3d fa 67 ed bd d1 e6 5f 3e b6 da 97 bc
       0.059879307 -0.115920976 0.21865393 -0.018536907
000300 b8 1f 93 bc 35 40 36 3a 40 93 09 be b6 09 a8 bd
       -0.01795946 0.00069523166 -0.13435078 -0.08204977
000310 0d 65 47 3e 30 56 8b be 7e 4f c9 bd ad 1a 1b 3d
       0.19472142 -0.27214193 -0.09829615 0.037867237
000320 e5 46 e5 bc ed 55 27 be f6 db 30 be 7d be a9 3b
       -0.027987907 -0.16341372 -0.17271408 0.0051801787
000330 87 f3 9d bc 77 cb df bd 68 b5 36 be 1b 9f 58 bd
       -0.019281162 -0.1092748 -0.17842638 -0.05288611
000340 52 fa 94 bd 57 c3 f0 bd 38 61 6d 3e 10 2b 56 3d
       -0.07274307 -0.11756008 0.23181617 0.05228716
000350 69 2b 44 3e 77 9b 0c be 72 df 1c 3e e9 20 a6 bd
       0.19157185 -0.1373118 0.15319613 -0.08111746
000360 93 ea 1a 3e 94 be aa bd d3 70 69 3c e4 59 58 be
       0.15128545 -0.08337131 0.014248091 -0.2112804
000370 aa 28 8f 3d 8e dd 1a bd fd c5 10 be ee 0d 9f 3d
       0.06990178 -0.037808947 -0.14138027 0.07766329
000380 1e 1c ce bd 89 86 2a 3d 3a 36 91 3d e9 58 52 be
       -0.10063957 0.04163221 0.07090421 -0.20541729
000390 91 90 f4 bc 8d 26 e5 bd bc 11 89 be 8c 5a 34 3e
       -0.02985409 -0.111889936 -0.26771343 0.17612666
0003a0 46 e9 69 3d 9f 7d ae 3d ed 10 f2 bd ee c2 10 be
       0.057107233 0.08520054 -0.118196346 -0.1413686
0003b0 ab 43 4f 3d cf 19 63 bd 71 d1 35 3e d7 ad 44 3e
       0.050601643 -0.055444535 0.17755677 0.1920694
0003c0 17 e8 9e be 39 31 f1 3d 24 f6 a1 bd 67 0c c6 3d
       -0.31036445 0.117769666 -0.07908276 0.09670334
0003d0 c7 f2 96 bd 88 19 c7 b9 ff 5a 35 3d 9b f8 af 3d
       -0.07370525 -0.0003797526 0.044276234 0.085923396
0003e0 0f 91 63 be d6 7f 09 be 23 35 83 bd b5 17 3f bd
       -0.22223304 -0.13427672 -0.064066194 -0.04665347
0003f0 29 9c 89 3d 5f 6e 21 3d 8c 21 43 3c 25 0f b9 bd
       0.06719238 0.0394119 0.011909854 -0.09036092

S6.bias f4 [84]
000000 40 dd 49 bc c0 fb 4b 3d 4f f0 c7 39 44 69 7c 3d
       -0.0123208165 0.049800634 0.00038135282 0.061623827
000010 4c 17 4c 3d 30 93 6b bc 10 dd f8 3b ac 38 ce 3c
       0.049826905 -0.014378354 0.007594712 0.025173508
000020 b0 4c f7 3c f2 77 35 bd 04 77 9c 3d 5c 26 2a 3d
       0.030187935 -0.044303842 0.07639888 0.04154049
000030 09 a8 8e bd e8 df 4d 3d 60 40 45 bb 00 e3 9d ba
       -0.06965644 0.05026236 -0.0030098185 -0.0012045801
000040 d6 8a fa bc 04 11 6b 3d 7c cb ba bc 32 04 a0 3d
       -0.03058378 0.057389274 -0.022802107 0.078133
000050 38 fe 50 3d 7c 2a 45 3d 30 04 d5 3b d8 a7 ba bc
       0.051023692 0.04813622 0.0065007433 -0.022785112
000060 be c0 93 3d 20 41 44 3c 3c e0 9d 3d 60 5a 15 bc
       0.07214497 0.011978418 0.07708785 -0.009115785
000070 40 75 39 3d 98 37 7d 3c 0d 9c a1 bd 1c df 29 3d
       0.045277834 0.015455149 -0.078910924 0.04147254
000080 db 30 b6 bd 0c 47 cb 3c 4e 5a b4 3d f1 68 40 bd
       -0.08896037 0.024814151 0.08806287 -0.04697508
000090 62 8b 85 3d f8 e1 0f 3d 4c 83 97 3c c8 cb ba bc
       0.06520726 0.03512761 0.018495224 -0.022802249
0000a0 68 b4 d7 bc c4 cb e1 3c 4d 31 32 bd ca 5d ff bc
       -0.026331142 0.027562983 -0.04350405 -0.031172652
0000b0 90 a9 71 3d 70 da bd bc b8 63 b4 bd 44 3f a8 3c
       0.058999598 -0.023175448 -0.08808082 0.02053798
0000c0 98 de 50 3c 70 d3 d6 3b 41 b3 a1 bd bc d6 9f 3d
       0.012748383 0.006555967 -0.07895518 0.07804629
0000d0 ee 06 63 bd 00 a3 8a ba 0a c7 50 bd 3f cd a3 bd
       -0.05542653 -0.0010577142 -0.05097107 -0.07998132
0000e0 9d da 8f 36 e2 d8 b9 3d 03 37 5e bd 8a ec 03 bd
       4.287182e-06 0.0907457 -0.054251682 -0.032208003
0000f0 e4 22 0b 3d 85 57 33 bd bc 43 cb bc 00 b4 3f ba
       0.03396882 -0.043784637 -0.024812572 -0.0007312894
000100 f0 51 4d 3d ad 3d 7a bd 38 fb 89 3c d3 c5 5c bd
       0.05012697 -0.061093975 0.016843423 -0.053899597
000110 68 16 38 3d 44 6b a5 3d c2 be 93 bd 60 33 0f bb
       0.044943243 0.080771 -0.072141185 -0.002185069
000120 78 67 8b bd 38 d2 a6 bc 17 ae b2 bd 2a 47 9c 3d
       -0.068068445 -0.020363912 -0.08724611 0.07630761
000130 6a 37 b2 3d 70 72 a8 3d c1 d0 95 bd 28 be 33 3d
       0.08701976 0.08224952 -0.07315207 0.04388252
000140 80 d5 9a 3b 54 cd ad 3c 12 47 a3 bd ca 28 8a bd
       0.004725158 0.021216072 -0.0797254 -0.06746061

B6.weight f4 [84]
000000 c1 d1 d0 3f 24 d9 e3 3f 49 72 c6 3f 69 b4 b0 3f
       1.6314012 1.7800641 1.5503627 1.3805057
000010 fd 5c c1 3f 9f 7c d1 3f 1c b9 db 3f c8 e3 c5 3f
       1.5106503 1.6366156 1.7165866 1.5460138
000020 80 70 c9 3f 0a 3b e7 3f de 20 b1 3f 95 78 d6 3f
       1.5737457 1.8064892 1.3838155 1.6755549
000030 fe 74 d8 3f 35 e9 c7 3f 9e 40 d6 3f a7 d5 ba 3f
       1.6910703 1.5618044 1.673847 1.4596452
000040 47 51 d2 3f 85 fe d4 3f f3 5e d6 3f c0 41 ce 3f
       1.6431054 1.6640173 1.6747726 1.6113815
000050 8e a4 ec 3f d9 2e cc 3f 03 d5 c8 3f 4d de c5 3f
       1.8487718 1.5951797 1.5690006 1.5458466
000060 c1 c9 b1 3f a9 06 ce 3f 12 08 d2 3f 01 53 b5 3f
       1.3889695 1.6095783 1.6408713 1.4165956
000070 1c 05 bf 3f 88 2d d4 3f 61 e0 b4 3f e0 90 df 3f
       1.4923434 1.6576395 1.4130975 1.7466087
000080 98 bf c4 3f 42 cf c0 3f f0 a5 ae 3f 30 66 cd 3f
       1.537097 1.506325 1.364439 1.604681
000090 b0 22 ab 3f 05 39 9e 3f ae 1d d2 3f 9c 4d cd 3f
       1.3369961 1.2361151 1.6415308 1.603931
0000a0 a2 cc ca 3f 82 05 c1 3f ba c6 d1 3f 2c d4 db 3f
       1.5843699 1.5079806 1.6388772 1.7174125
0000b0 33 38 b8 3f 17 21 cf 3f 44 ca bf 3f ed 1d c1 3f
       1.4392151 1.6181973 1.4983602 1.5087258
0000c0 59 0d d6 3f 98 90 d7 3f ee 86 bb 3f 48 7f b5 3f
       1.6722823 1.6841002 1.4650552 1.4179468
0000d0 17 05 c1 3f a9 6e c6 3f c3 5c bd 3f 86 b7 bb 3f
       1.5079678 1.5502521 1.4793934 1.4665382
0000e0 75 50 d7 3f 7e 05 bb 3f d3 23 b3 3f 07 92 d3 3f
       1.6821429 1.4611051 1.3995308 1.6528939
0000f0 86 3b d8 3f 64 12 c2 3f 1f c7 ce 3f 68 c4 ad 3f
       1.6893165 1.5161862 1.6154517 1.3575563
000100 23 ea be 3f 7d a2 bd 3f b0 77 c0 3f 87 8f a9 3f
       1.4915203 1.4815212 1.5036526 1.3246926
000110 65 27 b5 3f 39 4b d2 3f 14 d6 d6 3f 41 53 d9 3f
       1.4152647 1.6429206 1.6784081 1.6978532
000120 54 a2 c6 3f 7d 65 b7 3f 94 65 c7 3f f6 27 d4 3f
       1.5518289 1.4327847 1.5577874 1.6574695
000130 72 17 cb 3f a1 21 d4 3f 6b cf c1 3f 2f dc bc 3f
       1.586653 1.6572763 1.5141424 1.4754695
000140 cd b5 b2 3f f5 19 cd 3f d0 4d b4 3f 23 28 c6 3f
       1.3961731 1.6023546 1.4086246 1.5480999
