ex1_303166318_307955872/models/Lenet5 Weight Decay.pkl (torch, 250071 bytes, 10 tensors)

C1.weight f4 [6, 1, 5, 5]
000000 3e da 14 bf ba 6c 5a 3e b7 f5 18 3f 99 8c 13 3d
       -0.5814551 0.21330538 0.5974993 0.036022756
000010 94 7b 8e bf cf 5e e2 be f9 50 7d 3d c6 a3 50 3f
       -1.1131463 -0.44212958 0.0618448 0.814999
000020 bf 65 11 3f 0c 22 6d bf 67 1c d5 be 4b 33 29 3d
       0.5679588 -0.92630076 -0.41623232 0.041308682
000030 d9 7d 24 3f 41 dc 26 3f 9d e4 b8 be 52 71 a2 be
       0.6425453 0.6517983 -0.36111918 -0.31727082
000040 a4 35 1f 3e b0 2a 78 3e 73 ea f3 3e 4a e0 5d be
       0.15547806 0.24235034 0.47639808 -0.2166759
000050 cc 0c 81 be 37 32 25 be 5b 7d b0 bd 84 ad f7 bc
       -0.25205076 -0.16132437 -0.0861766 -0.030234106
000060 98 c3 c2 be a4 3e 0c 3f 5b 76 11 3f 8e 1d 82 3d
       -0.3803985 0.5478308 0.5682122 0.06353293
000070 e7 16 50 3e f6 11 26 3e 72 33 15 3f 20 d7 7a bd
       0.20321237 0.16217789 0.58281624 -0.061240315
000080 4e af 77 bf 01 79 5c bf d8 f8 bb be 99 57 3d be
       -0.9675187 -0.8612214 -0.3671329 -0.18490447
000090 c4 cb 87 bf fc fe bb bf e9 55 aa bf 1b 8a 56 bf
       -1.0609059 -1.468719 -1.3307468 -0.8380448
0000a0 66 c7 7d be 2f ba 99 bf b1 d6 a0 bf 88 9a 8a bf
       -0.24783096 -1.2009944 -1.2565519 -1.0828409
0000b0 07 40 62 bf 87 8a b2 3e fe c2 05 be 6e 84 83 bf
       -0.8837895 0.34871313 -0.13062665 -1.0274789
0000c0 7b e7 77 bf 0f 7e 9c 3c ec 70 29 3e 49 67 92 be
       -0.96837586 0.019103078 0.16546983 -0.28594425
0000d0 8f 2e 85 3e 34 9d c7 3f 76 70 45 bf 2b bc fb 3e
       0.26012084 1.559485 -0.77124727 0.49166998
0000e0 73 7e 2a bf cb f3 9a 3d 84 45 02 40 06 19 c9 be
       -0.66599196 0.07566031 2.035493 -0.39276904
0000f0 35 6a fa 3e de 58 ae bf 10 e8 5f bf e5 e5 f6 3f
       0.48909155 -1.362087 -0.87463474 1.9288908
000100 84 bc 84 3e e3 33 17 3f 55 bb ce bf d9 ed f1 bf
       0.25925076 0.5906355 -1.6150919 -1.890071
000110 f9 ca 85 3f 1d 4b ef 3e ca 5d 85 3f 9b cd c7 bf
       1.0452567 0.46736994 1.0419247 -1.5609621
000120 98 e2 bf bf 9e 63 02 3f f8 63 03 bc 9b 7b 9c 3e
       -1.4991026 0.50933254 -0.00801944 0.30563053
000130 18 44 87 3f 45 ab 9d 3f b8 c4 78 3f c6 e7 34 3f
       1.0567656 1.2317892 0.9717517 0.7066616
000140 2f b8 0d 3d dc 36 f5 3e c4 79 7f 3f 0e 8b 2c 3f
       0.03459948 0.47893417 0.99795175 0.6739968
000150 f0 9e c4 3e 25 02 6d bc 9c a5 95 be 67 52 20 bf
       0.3840251 -0.014465843 -0.29227912 -0.62625736
000160 64 c1 44 bf b3 bc d4 be 32 79 b0 3d d8 81 a5 be
       -0.7685759 -0.41550216 0.08616866 -0.32325625
000170 9a b6 88 bf 74 cf 87 bf de b8 be be cd de 9e 3e
       -1.0680726 -1.0610185 -0.37250417 0.31029359
000180 41 13 d4 bd de 06 73 bf d4 55 41 bf d5 9b 19 3f
       -0.10355235 -0.94932353 -0.7552159 0.60003406
000190 a0 07 e8 bb 44 7d bf 3e 78 c7 ab 3e c6 ab 56 bf
       -0.007080987 0.37400258 0.3355062 -0.83855855
0001a0 b3 43 b7 bf d3 7f 81 bd bf 48 2b 3f 83 52 8c 3f
       -1.4317535 -0.06323209 0.66907877 1.096268
0001b0 bf 5c 0f 3e 77 f5 1f bf e4 47 8b be a3 8c 9c 3e
       0.14000224 -0.62483925 -0.27203286 0.30576047
0001c0 cb bd 42 3f a6 be 6b 3f e0 f7 55 3f c7 e6 47 bf
       0.7607085 0.9208778 0.8358135 -0.78086513
0001d0 84 80 e5 be cf fa 17 be 75 de f9 3e cf b3 2f 3f
       -0.44824612 -0.1484177 0.48802534 0.6863374
0001e0 1f d1 1f bf 8f 81 4b bf 64 d2 fa be d7 d6 7b be
       -0.6242847 -0.79494566 -0.4898864 -0.24593674
0001f0 1f 86 42 3e ff 9f 11 bf 30 31 1e 3f e7 23 13 3f
       0.18996476 -0.5688476 0.61793804 0.5747666
000200 81 54 04 bf 8e 3c e2 bf 22 e7 2a bf 61 81 5c 3f
       -0.5169144 -1.767473 -0.6675893 0.86134917
000210 16 af 69 3f e2 df ab 3d 20 03 02 bf b0 d5 9b b8
       0.91282785 0.08392312 -0.5078602 -7.430778e-05
000220 b3 06 77 3f 76 3b 88 3f b6 89 0e 3f 43 6f 8b 3d
       0.964946 1.0643146 0.5567888 0.06808331
000230 f9 89 b2 bd c8 04 d8 3e e9 2c 24 3e 28 03 82 3c
       -0.087177224 0.42191148 0.16032757 0.015870646
000240 5d 26 00 3e e2 1c e6 bd 29 2a 0e 3e b0 c6 21 bd
       0.12514634 -0.11235978 0.1388327 -0.039496124
000250 59 ae 4c be 32 4c 1f be
       -0.19988383 -0.1555641

C1.bias f4 [6]
000000 18 73 b5 3e 7e 4a 97 3f 5c b7 9c bd af 15 87 bc
       0.35439372 1.1819608 -0.076521605 -0.016489832
000010 c8 21 33 3e e6 64 5d bd
       0.17493355 -0.054051302

C3.weight f4 [16, 6, 5, 5]
000000 3a 4e 77 3d 39 92 da 36 7e 64 52 be 2e ef 6a be
       0.060377337 6.513929e-06 -0.20546147 -0.22942802
000010 29 b4 de 3d bb 37 57 bc 99 f0 06 3e 61 19 18 be
       0.108742066 -0.013135846 0.13177718 -0.14853431
000020 22 b1 c4 be 6b ff ca bc 63 7e 64 bd c3 48 8a 3d
       -0.38416392 -0.024779996 -0.055784594 0.067521594
000030 d8 4c 85 bd 38 e1 cc 3d 74 32 94 3d 13 62 4c bd
       -0.065087974 0.100038946 0.07236186 -0.04989822
000040 e1 c4 f4 bc 95 26 1a 3c c1 a1 2b 3e 7e 02 be 3d
       -0.029879035 0.009408613 0.16760923 0.09277819
000050 71 a4 87 bd 8d 66 c8 bc 55 69 0f 3e 68 52 68 3d
       -0.066231616 -0.024462963 0.14005025 0.056719214
000060 cb 0f 29 3e 8b 57 9e be 8b 48 04 3e d5 7f 58 3f
       0.16509931 -0.30926165 0.12918298 0.84570056
000070 27 42 70 3f ff a2 38 3e 50 f7 05 be 8b 9b 19 bd
       0.9385094 0.18030928 -0.13082623 -0.037501853
000080 f7 b4 cd 3e 26 15 bb 3e bb 78 61 3d 65 e1 99 be
       0.40177128 0.36539572 0.05504678 -0.30054775
000090 41 63 48 be 7b 3a 5f bd c1 ff e3 3c f3 93 1d 3d
       -0.19569112 -0.05449913 0.027831914 0.038471173
0000a0 51 a2 71 be b0 da 4b be d6 da e9 bd 3b c2 80 3d
       -0.23597075 -0.19907641 -0.11418693 0.062870465
0000b0 5d 54 93 bc de db 00 be fd 0f 29 be 72 b5 74 be
       -0.017984563 -0.12583873 -0.16510005 -0.23897341
0000c0 e8 67 8c 3c 41 85 95 be 4f 11 c2 3e 9a cc 4b 3e
       0.01713939 -0.29203227 0.3790383 0.19902268
0000d0 c9 a1 3a be 34 6c 7f 3e 21 51 bf 3e ba c2 0b 3f
       -0.18225779 0.2494362 0.37366584 0.54594004
0000e0 77 af 2a 3e b1 40 23 be cf 0a 3e be 66 1d e2 3c
       0.16668497 -0.15942647 -0.1855881 0.027601909
0000f0 f8 a8 4a 3e 01 91 17 3d ff 3c bf 3d 48 d7 10 bd
       0.19791019 0.03700352 0.09337806 -0.03536156
000100 82 01 d6 bd 07 fb 8b be 52 c3 c8 bd fc b7 4b 3e
       -0.10449506 -0.27339956 -0.098028794 0.19894403
000110 b2 93 3d 3e 12 e0 ba 3c b7 08 e6 bc 7c 2b 48 3e
       0.18513373 0.022811923 -0.028080327 0.19547838
000120 64 82 a3 bd d8 54 f4 3d 3c a3 8b 3e b7 05 44 bd
       -0.079838544 0.11930245 0.27272975 -0.047857013
000130 62 84 03 be ca e5 94 bd ad 0d b4 bd bf 24 5b bd
       -0.12843469 -0.07270391 -0.08791671 -0.05350184
000140 1d 49 9c 3d da d1 af bd 56 6b 98 bd 37 b6 e9 bd
       0.07631133 -0.08584948 -0.07442348 -0.11411708
000150 7d 9b 3d 3d f2 7a 08 3d d1 d9 a1 bc cc 81 49 3c
       0.046290863 0.033320375 -0.019757183 0.012299012
000160 6b 73 40 bd 7d b5 37 3c cc a3 23 bd 0b e7 f6 bd
       -0.04698507 0.011212704 -0.03995113 -0.12055787
000170 5e 22 38 bd 61 c5 ef bc 2f 7e 65 bd 06 46 f2 bc
       -0.04495465 -0.029268922 -0.05602854 -0.029574405
000180 69 e5 ea bc f0 5a 35 be 64 99 2d be 21 5a 02 be
       -0.028673844 -0.17710471 -0.16953045 -0.12729694
000190 bc 08 c7 3c 2f 6e 93 bd ec 9b 58 be 32 b8 3d bc
       0.024296157 -0.0719875 -0.2115323 -0.01157956
0001a0 33 40 39 3e 49 5f 24 3c 46 1e 25 3e b0 15 78 3b
       0.18090896 0.010032483 0.1612483 0.0037854724
0001b0 7f db 68 be 98 4c 80 bd de 3d aa 3d e4 e2 06 3e
       -0.22739981 -0.06264609 0.083125815 0.1317249
0001c0 52 42 15 3e ae ea 2f 3e cf 27 31 bd 9c ef 71 bc
       0.1457608 0.17179367 -0.043250855 -0.0147666
0001d0 a7 93 c1 bc 0e 26 cb bd bc 7b 09 3d be 27 0d 3d
       -0.023629976 -0.09919368 0.033565268 0.03446173
0001e0 91 45 fe 3c c6 ff 82 3d 6e a3 cb bb b0 2f 26 3d
       0.031039031 0.06396441 -0.0062145507 0.040572822
0001f0 ad ef 84 3e d1 7f 1b be 7f 3e 1d be 67 98 c1 be
       0.25964108 -0.15185477 -0.15355872 -0.37811586
000200 f9 46 48 bf 98 c0 54 be fd 92 a6 be f1 df 0d 3d
       -0.78233296 -0.20776594 -0.32534018 0.034637395
000210 4a 41 59 be 3f 5d 20 bf 3d a5 da bd fa 8f b0 bd
       -0.21216312 -0.6264228 -0.10676048 -0.08621211
000220 4a a0 ab bd a8 b0 c0 bd 94 c7 36 3e eb c2 2c 3d
       -0.08380182 -0.094086945 0.1784957 0.042178076
000230 0d d0 c0 bc 52 c5 35 be 43 bb 38 3d 3c ae a2 3e
       -0.023536706 -0.17751053 0.04510046 0.31773555
000240 4c 07 2d bc 42 d7 b6 3d 41 48 9d be 99 45 da 3d
       -0.010560822 0.08927776 -0.30719188 0.10657806
000250 d1 21 b4 bc 06 1b 8b 3c 84 5e aa bd 2e e1 f5 3d
       -0.021988781 0.01698066 -0.08318809 0.1200584
000260 07 83 5a bc e0 5b a4 3e 90 ba 3f 3e be 01 04 be
       -0.013336903 0.32101345 0.18723512 -0.1289129
000270 52 f0 ab bd 6c a2 8d be 86 46 82 bd 51 ab b4 3d
       -0.08395447 -0.2766298 -0.063611075 0.088217385
000280 ce 10 fb 3d ab 2b b1 3d 8d 90 cb bd f1 ec 86 be
       0.122590646 0.08650907 -0.0993968 -0.26352647
000290 d5 24 28 bd 53 4c a0 3d a6 93 02 3e 8f d8 05 3d
       -0.04105075 0.07827058 0.12751636 0.03267723
0002a0 03 36 e3 bd a9 94 08 3d d7 c2 fb bc b7 5e 13 3e
       -0.11094286 0.0333449 -0.030732555 0.143916
0002b0 b4 d4 5e 3d a0 6f 2e be 67 e1 8c 3d ef a1 74 3c
       0.05440207 -0.17034769 0.068789296 0.014931186
0002c0 35 e2 71 3e 71 67 dc 3e 92 cb cd 3e 47 8b 15 3e
       0.23621447 0.4304767 0.40194374 0.14603911
0002d0 e6 80 00 be be 3e ea 3d 94 34 16 3f 39 0c 0a 3f
       -0.12549171 0.114377484 0.5867398 0.539249
0002e0 76 fb 05 3e bf 7b 88 be f6 f8 90 be 94 fa 83 bd
       0.13084206 -0.2665691 -0.28314942 -0.06444278
0002f0 dc 30 c5 3d cf e9 88 bd e7 cf 74 be e4 d7 8a be
       0.0962846 -0.066852205 -0.23907433 -0.27117836
000300 22 05 52 be 64 7c ae 3c 09 07 a8 bd 61 f3 28 3d
       -0.2050977 0.021299548 -0.08204467 0.04124773
000310 0e 12 d5 bd 0a 09 d7 bd 3d 4e 31 3e e7 83 58 bd
       -0.10403834 -0.10499771 0.17315002 -0.052860167
000320 67 8e 65 3e cd f1 c4 3c cc 77 72 3e 2d dd 5e 3e
       0.22417603 0.02404108 0.23678511 0.2176406
000330 a2 fd 35 3e c2 05 52 3e ae 3c 88 be 6b 16 74 be
       0.17772534 0.20510009 -0.26608795 -0.23836677
000340 4b 37 a7 bd 76 55 11 3e d4 2c 97 3e a2 f9 89 3c
       -0.08164843 0.14192757 0.2952639 0.016842667
000350 ae 0a c1 be 49 d7 e4 be eb b2 9c be 13 e1 02 3f
       -0.3770346 -0.446955 -0.30605254 0.51124686
000360 84 50 ec 3e c6 04 25 bd 58 d3 83 be e5 e3 1a be
       0.4615518 -0.040287755 -0.2574718 -0.15125997
000370 46 5d cc 3e 9c 2c 86 3e 52 a7 9b be c1 28 8a be
       0.39914912 0.2620591 -0.30401093 -0.26984218
000380 67 e7 83 bd 12 80 05 be 5e 12 0a be d5 da 77 3e
       -0.06440621 -0.13037136 -0.13483569 0.24204572
000390 ec a2 a2 3e d1 35 36 3e 08 b3 93 be dc 76 37 be
       0.31764925 0.17793967 -0.28847528 -0.17916435
0003a0 b3 08 7b 3e 11 6d 0c 3f c1 db b1 3e a1 71 80 be
       0.24515037 0.5485392 0.3473797 -0.25086692
0003b0 2d c9 da be 0f b6 e3 be 88 6d f2 bd 23 e3 2a be
       -0.4273161 -0.44474837 -0.11837298 -0.16688208
0003c0 fb 2d 41 3e 32 9f 32 bd 15 f1 d7 bd 90 08 3e 3c
       0.18865196 -0.04360885 -0.105440296 0.011598721
0003d0 00 7a e0 bc 78 e6 b5 3e 09 cd 8e 3c 57 20 ef 3d
       -0.027401924 0.35527396 0.017431753 0.1167609
0003e0 f4 90 65 3e a4 ad c9 3d 61 03 33 be 37 d5 4a bc
       0.22418576 0.098475724 -0.17481758 -0.012379936
0003f0 41 7f 7e 3d 47 56 d4 3e 12 fe be 3e c9 4f 82 be
       0.062133078 0.41472074 0.37303215 -0.25451496

C3.bias f4 [16]
000000 55 d3 81 3d d3 c3 cd be 20 74 34 3e 2d fc 6c be
       0.063391365 -0.40188465 0.17622423 -0.23143072
000010 b8 38 18 3f 95 32 2f 3d 3e 15 c8 3e bc a4 b8 3d
       0.59461546 0.04277285 0.39078707 0.090157956
000020 51 39 1a bd 93 9e ed 3e 59 75 a6 3d 9f 73 70 bc
       -0.037652317 0.46410045 0.08127851 -0.014676004
000030 01 cd 4c 3f e1 b6 1a be b3 5e ba 3f 19 13 d7 bc
       0.8000031 -0.15108825 1.456015 -0.026254224

S5.weight f4 [120, 400]
000000 6a 4a 47 bc 82 8f 25 3d 38 fd b4 3c b2 1e 04 bd
       -0.012163738 0.040420063 0.0220934 -0.032255836
000010 37 91 0a be 84 a4 51 bc ef c3 83 bb d0 1f 88 3b
       -0.13531958 -0.012795571 -0.00402116 0.004154183
000020 12 2e 82 bc f1 10 b5 bc 3a c5 8a bc ee 39 08 bd
       -0.015891109 -0.022102805 -0.016939748 -0.03325837
000030 13 af 63 3c b6 9f 07 3d 2e 83 a7 bd 68 45 bd 3d
       0.013896721 0.033111297 -0.081793174 0.09241754
000040 c9 11 50 3d 97 fa 2b 3d 92 90 75 3d 34 f9 47 bd
       0.05079821 0.041987028 0.059952326 -0.048821643
000050 e4 f2 3e 3d 12 c7 f5 3c 0f 2d 87 bb b8 2b 0d bc
       0.046618357 0.03000215 -0.0041252444 -0.00861638
000060 84 2e 09 bd 51 5c 91 bd 84 5d 3d 3d bc fd 3c bd
       -0.033491626 -0.07097686 0.04623176 -0.046140417
000070 df fb 58 bc a6 e3 fe bd ce 1d 3c bd 01 b7 9a 3b
       -0.0132436445 -0.12445764 -0.04592686 0.004721523
000080 18 a7 c4 bc 20 32 69 bc a0 9e b5 3c a2 11 35 be
       -0.024005458 -0.014233142 0.022170365 -0.17682508
000090 67 72 ea 3c 2d c0 95 3c 92 9a ee 3c 37 be ad bd
       0.028619004 0.018280113 0.02912644 -0.08483546
0000a0 41 b6 25 3d 9e 01 0c 3c 61 56 2a bd 2e 3c 21 3d
       0.040457014 0.008545307 -0.041586284 0.039364032
0000b0 54 cb 62 3c 24 06 2b 3a 33 8b 87 3d 57 fb 5f bc
       0.0138424225 0.00065240473 0.06618347 -0.013670764
0000c0 b5 0e 0e bc f4 34 8c 3d 24 5c 66 bd a8 d0 1d 3d
       -0.008670499 0.068460375 -0.056240216 0.03852907
0000d0 fd 6e 36 3d 07 2d 71 3d bd 14 a1 3c f5 36 71 bb
       0.04453944 0.058880832 0.01966321 -0.0036806439
0000e0 7e 90 13 bd 2e 0d 81 bc c6 51 ca bd 5d c8 6f 3d
       -0.03602647 -0.015753355 -0.09878878 0.05854069
0000f0 c2 72 f1 bd 7b bd 14 be 96 b9 2d 3c c9 fa 16 be
       -0.117894664 -0.14525406 0.010603329 -0.14744104
000100 17 19 fa 3d 8c ec 5e be 6d f6 0d 3c 16 1b 98 3b
       0.12211817 -0.21769923 0.0086647095 0.004641901
000110 78 c8 07 bd ba aa cc 3d 98 ec 08 be ef e3 57 3c
       -0.033150166 0.09993501 -0.13371503 0.013176902
000120 ed 25 95 bc a1 c8 d3 3c f4 07 0e 3e 12 20 15 be
       -0.018206561 0.025852503 0.13870221 -0.14563015
000130 e7 d0 f6 bd 3f d3 6d bd b0 a2 d6 bc 5c 5e 25 bc
       -0.12051564 -0.058062788 -0.026200622 -0.010093298
000140 6f d0 8a be 70 75 89 3b 6f 6c 1a 3c 07 21 d3 bd
       -0.27112147 0.004194908 0.009425267 -0.10309034
000150 78 75 00 3c 7c 5f 81 3d 78 ec b1 3c fa 2c 0c bd
       0.007840507 0.0631704 0.021719202 -0.03422258
000160 4e e4 e8 3d d0 90 00 3b a9 ae 1d 3e a2 02 9c 3d
       0.11371671 0.0019617565 0.15398659 0.0761769
000170 07 20 a7 3c c0 dc 37 3c 38 fd 2a bd e2 9a 57 3d
       0.020401014 0.0112220645 -0.041745394 0.052637942
000180 e1 3f d4 bd 1e 75 e1 3d c8 73 8f 3d 7f 95 e0 bc
       -0.103637464 0.110086665 0.070045054 -0.027415035
000190 6d 47 9c bd a5 77 ab 3c 2b b8 87 bd ad 80 4e 3d
       -0.07630811 0.020931074 -0.06626924 0.050415684
0001a0 2d fe e4 3c 48 d0 85 bd 77 89 8b bd 34 62 b1 3d
       0.027953232 -0.06533867 -0.06813329 0.08661309
0001b0 a0 d5 a5 3d ff 61 99 3c cc 85 4f 3d af 1a ea 3c
       0.08097386 0.018723486 0.050664708 0.028577177
0001c0 57 47 ef 3c 06 0e e7 3d b3 fb 4a 3d 60 fa ae bc
       0.029208822 0.11281972 0.049556445 -0.021359622
0001d0 c2 f9 dc bc 5a 1d ac 3d c6 f8 17 3c 76 e7 21 3d
       -0.026974563 0.08404036 0.009275621 0.03952738
0001e0 5b 15 24 bd 47 bf 97 bc a1 33 81 3d 02 6e 8d bd
       -0.04005943 -0.018523825 0.063086756 -0.06905748
0001f0 d7 19 46 3b 86 ca 47 bc 8f ed d6 bc d7 18 b9 bb
       0.0030227804 -0.012194281 -0.026236324 -0.005648713
000200 f8 08 f7 bc 75 1c 89 bc d4 73 82 bc a1 d5 2f 3c
       -0.030155644 -0.016737202 -0.015924372 0.010732085
000210 f3 9a 5f 3c fd 80 d4 3c 0d 50 9e bc 87 88 ae bc
       0.013647783 0.025940413 -0.01932528 -0.021305336
000220 39 2a c5 3c c3 eb 85 3c d6 88 01 3c f6 42 4d 3c
       0.024067985 0.016347772 0.007906159 0.012528172
000230 dc 77 47 bb 07 3f 37 3b 68 94 f5 bb 9d 19 9f bc
       -0.0030436432 0.0027961151 -0.007494498 -0.019421393
000240 94 ae b1 bc 96 3d 1e bb 0d 15 a2 3c e8 3d a5 3c
       -0.02168969 -0.0024145595 0.019785428 0.02017112
000250 99 81 e4 bb a5 68 eb 3c fb 24 ff bd 97 ef 64 be
       -0.006973457 0.028736422 -0.12458225 -0.22357021
000260 d0 6e cb bd 6e d0 f3 3c 11 9d 30 3e 96 4e f4 bc
       -0.09933245 0.029762473 0.17247416 -0.029822629
000270 fe 5f d6 bc c3 af 36 bd ff 52 97 bd b1 a8 3d 3d
       -0.02616882 -0.044601213 -0.07388877 0.046303455
000280 32 9b 2b be 70 1f 74 3c 05 8c 99 bd 4c da c8 3d
       -0.16758421 0.014900073 -0.0749741 0.09807262
000290 af 8d a7 bd dd 49 82 be f7 de 18 bd 58 16 73 bd
       -0.08181321 -0.25446978 -0.03732201 -0.05934748
0002a0 9a 5f 90 3d 65 79 3c be cd 0b 0b be 97 b6 ff bc
       0.070494846 -0.18405683 -0.1357872 -0.031214995
0002b0 e8 07 c0 bc a6 cc d7 3d 4d d2 ae bd 67 df f5 3d
       -0.02344127 0.105370805 -0.085362054 0.12005501
0002c0 ef 70 3d 3d 0a 45 9b bb 04 5f bc 3d b3 8a c3 bd
       0.04625028 -0.0047384547 0.0919781 -0.09547939
0002d0 2a b8 73 3c c4 12 d4 3d 9d 88 41 3d a2 c3 88 bd
       0.014875451 0.10355142 0.047249425 -0.06677939
0002e0 ee 57 09 be 32 65 45 3d cd 44 96 3d 90 b1 88 3d
       -0.13412449 0.04819221 0.073373415 0.06674492
0002f0 b5 12 5b 3d 31 72 9e 3d 3b f5 cc bd 2d cc 8c 3d
       0.053484637 0.07736624 -0.100077115 0.06874881
000300 6b 6c 0c 3d c6 32 c7 3d 84 db 17 be 00 8a 0d bd
       0.034283083 0.09726481 -0.14829832 -0.034555435
000310 71 e2 2b bb ad cc 03 3e 68 2f 3f 3c 4d d6 dc bd
       -0.00262275 0.12871046 0.011669017 -0.10783062
000320 23 8e 93 3b 1b a4 80 3c c1 92 9f 3b bc 3c 00 3d
       0.004503028 0.015703252 0.0048697894 0.03130792
000330 84 b2 23 bb 42 0f 9b bd 6e e4 3b bd f9 0e 19 bc
       -0.002497823 -0.075712696 -0.045872144 -0.009341949
000340 a7 78 b9 bc 10 22 8f b9 77 e5 16 3d 2b d2 d9 bb
       -0.02264054 -0.00027300464 0.03683993 -0.0066473684
000350 de 19 6d 3d 01 41 96 3d c2 22 0e 3c f6 54 d1 3d
       0.057885997 0.07336617 0.008675279 0.10221283
000360 f8 5a 18 3c 92 fc 58 bc 77 ad a2 bc 65 d0 c3 3d
       0.009299032 -0.013243811 -0.019858105 0.095612325
000370 e6 c0 bf 3d e8 26 44 3d 27 24 09 3c 5b 60 63 bd
       0.09362964 0.047888666 0.008370436 -0.055511814
000380 9c d2 24 3d c4 21 09 be c7 69 4a be f7 b1 91 bd
       0.040239915 -0.13391787 -0.19766913 -0.07114022
000390 54 94 7b ba 8b fb be bd 6d 42 07 be fc de d7 bd
       -0.0009596993 -0.09325322 -0.13208933 -0.10540578
0003a0 3e 14 b9 bd c5 46 14 be 7c 17 98 3c 1d 93 f7 bd
       -0.09037064 -0.14480121 0.018565886 -0.120886065
0003b0 71 d6 d3 bc 44 76 36 3d e4 20 66 3e 58 9f eb 3d
       -0.02585909 0.04454638 0.22473484 0.11505002
0003c0 0b bb 09 3d b0 bd 04 3e 97 63 63 3d 5a af 83 3d
       0.033625644 0.12962985 0.0555149 0.0642993
0003d0 c4 4b a7 3d e9 a0 16 3e e5 31 1a 3e 7f 8c 01 3e
       0.08168748 0.1470982 0.15058096 0.12651251
0003e0 64 c4 d3 3d 3b be 15 bd e1 43 a2 bd 33 9f ee ba
       0.10340193 -0.03655837 -0.07923103 -0.0018205404
0003f0 e6 ee 94 bd 3f c3 0b bd 86 8b 12 3d 29 2a f6 bd
       -0.07272129 -0.034121748 0.03577759 -0.1201976

S5.bias f4 [120]
000000 38 0b 4e 3d 0e 57 52 bc 6b 5c e2 bc 6d d8 9c bd
       0.050303668 -0.012838138 -0.027631959 -0.076584674
000010 49 ad 18 3d ae 1b a1 3e 3c 8a 34 3d fb 3a c2 3c
       0.037274633 0.3146643 0.044077143 0.023709765
000020 d5 82 fd bc ac 73 e9 bb f4 42 f8 bd c9 fc 1d be
       -0.030946175 -0.007124385 -0.12122145 -0.15428461
000030 45 b7 79 3d 21 05 76 bd 4b dd 06 3e 92 6f 8a 3c
       0.060965795 -0.060063485 0.13170354 0.016898904
000040 24 7f fd 3d 80 a3 07 be 29 20 f3 3d 38 af 64 3d
       0.12377766 -0.13245964 0.118713684 0.055831164
000050 f8 de b0 3c ea 11 d1 bc 13 0e b7 bd 1a 6d a0 3d
       0.021590695 -0.025521237 -0.08938231 0.078333095
000060 5d f5 94 bd cf 57 23 bd d4 00 cd bd 76 5c 63 bc
       -0.07273362 -0.039878663 -0.100099236 -0.013877025
000070 35 49 0d 3e 33 a3 c3 bc 83 f3 10 be 29 aa 9e bc
       0.13797458 -0.02388153 -0.14155392 -0.019368248
000080 97 16 be bc 80 be 16 bd 84 cf 30 bb 7c 7d 97 3d
       -0.023204131 -0.03680277 -0.0026979158 0.07396981
000090 cb bf a2 3c 74 71 13 3d 4e 67 5f 3d 76 a8 bd 3d
       0.019866845 0.03599687 0.05454188 0.09260647
0000a0 99 e8 d2 3d 51 75 77 3e 57 a2 45 bd bb 65 98 bd
       0.10298271 0.24165846 -0.048250522 -0.074412785
0000b0 0f d9 ed bc 60 5b 27 3e 0f 70 9b bd d8 5f 6d 3d
       -0.029034166 0.1634345 -0.07589733 0.05795273
0000c0 5b e4 de bb f2 37 7d bc ea db b5 bd 98 d9 b1 3b
       -0.0068021244 -0.015455233 -0.08879836 0.0054275505
0000d0 22 95 fc 3d b6 31 30 3c 40 07 05 bd 98 af 12 bd
       0.12333132 0.0107540395 -0.032477617 -0.03581199
0000e0 08 90 a4 3c e7 48 b7 bc 75 bb a4 3d 22 22 22 3e
       0.02008821 -0.02237363 0.08043567 0.15833333
0000f0 00 36 29 3e 44 cc 65 bd 5a 2a 39 bd 90 6c e0 bc
       0.16524506 -0.056103006 -0.045206405 -0.027395517
000100 bb c7 ad bd 35 14 db bc 3a ec af bd b6 cc c1 bd
       -0.08485361 -0.026743034 -0.085899785 -0.09462874
000110 fb e7 61 3e b3 8d 67 3c f4 4f e5 3c f7 ae 0b 3d
       0.2206115 0.014132905 0.027992226 0.034102406
000120 2e 29 91 3d 6f 22 e6 bc 40 58 11 be d8 4f 09 bb
       0.070879325 -0.028092591 -0.14193821 -0.0020952132
000130 60 bc 08 3d 1e 65 2e bd 3e dd c4 3c e6 69 ac 3d
       0.033382773 -0.0425769 0.024031278 0.08418636
000140 d6 bb 64 bd 2d 51 40 3d ae bf 99 be 83 d2 32 3d
       -0.055843197 0.046952415 -0.30029052 0.04365779
000150 be 15 23 be fe d6 ec 3d 60 b6 d3 3d 1d 44 47 bb
       -0.15926263 0.11564444 0.1033752 -0.003040559
000160 9d e5 7f bd 39 2a 0d 3e e0 07 21 ba 26 e6 66 bc
       -0.062474836 0.13785638 -0.0006142836 -0.014092958
000170 9a 95 bc 3d a5 0c 4d bc e6 8f f5 3c 90 89 34 bd
       0.09208222 -0.012515222 0.029975843 -0.044076502
000180 b6 a0 08 bd cb cb dd ba b1 09 35 be b1 74 ca 3b
       -0.03335639 -0.0016921697 -0.17679478 0.0061784615
000190 b4 f3 e1 bc 49 94 ec bb 8c 30 24 3c fe c8 40 3e
       -0.027582027 -0.0072198254 0.01002134 0.18826672
0001a0 56 0d 67 3b fa 00 dc 3c 7b a4 2d 3d a4 08 9a bd
       0.0035255752 0.026855934 0.04239319 -0.07521179
0001b0 d2 47 a1 3e 15 ac 0d bd 43 22 5c 3e 2b f4 4f bc
       0.31500107 -0.03458794 0.21497445 -0.0126924915
0001c0 50 8c e1 3d 5b fb 05 3e c3 f4 13 3e 9e 85 66 bd
       0.110130906 0.13084166 0.14448838 -0.05627977
0001d0 37 81 50 be 0a 47 06 3d 80 c1 57 3d d2 00 2c 3d
       -0.20361792 0.032782592 0.05267477 0.04199297

S6.weight f4 [84, 120]
000000 ee 6f 29 3e a5 fb 9f 3c 5d 2e 83 3c a2 6f 88 bd
       0.16546604 0.019529173 0.016013319 -0.06661917
000010 7c 25 9d 3d fd f8 98 3e 99 41 9d 3d 68 f4 0e bd
       0.07673165 0.29877463 0.076785274 -0.034901053
000020 b2 0b a3 3e cb ab e4 bc a3 d2 ba bd 1f 45 66 bd
       0.3184486 -0.027913949 -0.09122207 -0.056218263
000030 a4 2c b0 bd d7 3d 96 3e 0a 2b 88 bd ff 56 97 39
       -0.086022645 0.29344055 -0.06648834 0.00028865781
000040 8b 8e 07 bd 7f 36 eb 3d 98 c1 00 bc a8 06 b3 3d
       -0.033094924 0.11485004 -0.007858656 0.08741504
000050 4a 97 eb 3d 5f 22 c2 be 8b bb 8d 3e b0 34 b7 bd
       0.115034655 -0.37916848 0.27682146 -0.08945596
000060 c0 2e 40 bd c9 90 07 3e 1f 9d ce 3c fe ae 4c bd
       -0.046919584 0.13238825 0.025221406 -0.049971573
000070 ce 72 86 3e 43 89 50 3c da 58 26 be 81 4a 1c 3c
       0.26259464 0.012728038 -0.16244832 0.0095392475
000080 b1 0b 25 3d 91 db 67 3d c5 2d 48 be 37 cd 65 be
       0.040294353 0.05660588 -0.1954871 -0.22441565
000090 99 7e 19 3d 6f 50 e1 bc 15 64 5d 3d 0b 05 9b be
       0.03747425 -0.027504174 0.054050524 -0.30277285
0000a0 eb 4d 4d 3e 44 04 0c 3f eb bd 27 3e 4e 18 a2 bd
       0.20049255 0.5469401 0.16381042 -0.07914792
0000b0 10 c6 a7 3d c1 ff 83 be 72 2a 5d bd 1f e0 38 3e
       0.08192074 -0.25781062 -0.053995557 0.18054245
0000c0 43 ba 36 bd 2d 2c ac bc 4b 05 35 be 81 f1 9b 3e
       -0.044611227 -0.021017158 -0.176778 0.3045769
0000d0 75 e6 1b be fa 85 c0 3c f6 53 1a 3d 1d 59 37 bd
       -0.15224631 0.023501385 0.037677728 -0.04476272
0000e0 84 cf 41 3d f8 78 14 3e 92 99 8d be eb 15 0a 3d
       0.047317043 0.14499271 -0.27656227 0.03371231
0000f0 14 64 82 bd 29 a2 95 3e c5 53 63 be 59 cf 02 3c
       -0.06366745 0.2922528 -0.22199924 0.007984006
000100 95 57 b3 be b0 e5 93 be f9 59 19 3d 1c 24 1b 3d
       -0.35027757 -0.28886175 0.03743932 0.037876233
000110 da 59 db 3d 78 5b cc bb db 70 1d 3e a3 37 d6 3b
       0.10710497 -0.00623649 0.15375082 0.006537394
000120 e1 7e 8a be da a3 f6 3d d0 f4 69 be 19 04 aa bc
       -0.27049926 0.12042971 -0.22847295 -0.020753907
000130 41 5b 92 3c 19 4e bd bd b6 ba 5f bd 59 56 cb 3c
       0.017865779 -0.092434116 -0.05462142 0.024821447
000140 92 3c 64 3c 69 a5 31 3c 1f e5 72 be 68 22 11 3e
       0.013930457 0.0108426595 -0.23720215 0.14173281
000150 a5 9a fc 3d b3 8b 23 bc 9d 72 3b bd e7 41 1e 3d
       0.123341836 -0.009982037 -0.0457636 0.038637068
000160 17 40 a6 be 79 31 2e be e5 30 56 bd 9f 62 89 be
       -0.32470772 -0.1701106 -0.052292723 -0.26833054
000170 0e 4e 3b be 36 bc 0b 3e f0 b7 46 be ca ee 15 be
       -0.18291494 0.13646016 -0.19406104 -0.14641872
000180 2f a4 e0 be 42 d1 4b bc f0 98 07 3e ae 2c d8 bc
       -0.43875262 -0.012440028 0.13241935 -0.026388492
000190 73 50 12 3d 3a 13 1c bd fb 52 fb bc 13 0b bb 3c
       0.035721254 -0.038104273 -0.030679217 0.022832429
0001a0 70 bf fe bd f4 de 42 3d 73 a1 4f be f3 9b e8 3c
       -0.124388576 0.047575906 -0.20276432 0.028394675
0001b0 a2 22 3f 3e 30 79 ba 3e f0 74 5a 3e 24 79 08 3e
       0.18665555 0.36420584 0.2133367 0.13327461
0001c0 c9 ee eb 3e 96 0e 1d 3e 76 92 ba 3c 69 47 b1 3d
       0.46080616 0.15337595 0.022774916 0.086561985
0001d0 83 13 da bc d3 f9 4b 3c b4 d6 b6 bd 8e e9 9b 3d
       -0.026620632 0.012449699 -0.0892767 0.076129064
0001e0 0f 52 4f 3d 0b 23 1a bd 48 2b e2 3b cf ae 90 bd
       0.050615367 -0.037631076 0.006902132 -0.07064592
0001f0 af f5 1b bc db 5b 63 bd c2 ec d3 bb e0 2a cd bc
       -0.009519025 -0.055507522 -0.0064674327 -0.025044858
000200 47 dd 8d bc 34 bb 48 bc 37 e7 18 bd 7a 4b 02 3d
       -0.017317427 -0.012251664 -0.03732988 0.03181026
000210 ec da 10 3b f2 f2 6d 3c a8 cb 0f 3d 5d 1e 33 bd
       0.0022103144 0.014523255 0.03510633 -0.04373013
000220 5c 50 5e bd 61 f6 fb bb da 75 67 3d 0d e2 22 be
       -0.054275855 -0.0076892828 0.056508876 -0.15906544
000230 50 87 02 3d 03 cb bd 3b c3 50 ab bc ee 64 54 3d
       0.031867325 0.005792023 -0.020912534 0.051854067
000240 77 66 37 bd b1 2e a8 3d cb 4a ad 3d bd 5c 70 bd
       -0.044775452 0.08212031 0.08461531 -0.058682192
000250 85 d2 0f 3d 79 72 49 bd ca 57 da bd b0 f4 57 bd
       0.035112876 -0.049181435 -0.10661276 -0.052723587
000260 2b f3 27 3d c5 57 85 3c a8 83 2c be 87 a0 a8 bd
       0.041003387 0.016277203 -0.16847098 -0.08233743
000270 e3 2b 75 bd 8a 5a d5 3d f0 48 9c bc f7 2d db 3d
       -0.059856307 0.104176596 -0.019077748 0.107021265
000280 17 80 e2 bd 52 39 a2 3c 73 cc b3 bd 17 9b 58 bd
       -0.110595874 0.019802723 -0.0877923 -0.05288228
000290 72 e4 0c bd b8 eb 65 bd 2a 85 3c bc b5 2a 26 bc
       -0.03439755 -0.056133002 -0.011506358 -0.010142018
0002a0 be ce a4 bb d7 8d f9 bc 25 19 98 bd e9 50 63 3d
       -0.0050295284 -0.030463142 -0.07426671 0.055497084
0002b0 e0 7c 55 3d a8 02 56 bd 83 c7 1b 3d 15 49 84 bc
       0.052121043 -0.052248627 0.038032066 -0.01614813
0002c0 ff d1 fa bc 44 0f d3 bd 60 f8 63 3d c3 2d 97 3a
       -0.030617712 -0.10305646 0.05565679 0.0011534024
0002d0 a1 67 80 3d 5b 37 34 bd a7 98 6e bd a3 c0 5a bd
       0.06269766 -0.043998104 -0.05825105 -0.05340637
0002e0 cb f3 6e 3d dd ea ab bd 92 1f 66 bd 30 c4 07 3e
       0.058337968 -0.08394406 -0.05618245 0.13258433
0002f0 e9 3c 3c bd ea 76 18 bd 33 e4 6a bd 21 69 a1 bd
       -0.045956526 -0.03722278 -0.057346534 -0.0788138
000300 93 6e 64 bd 74 6c 7c bd 18 9f a7 3d 76 e2 93 bd
       -0.055769514 -0.061626866 0.081846416 -0.07220928
000310 a7 52 76 bd 6b 6a de bd 06 19 aa ba d0 e8 05 3a
       -0.060137417 -0.10860141 -0.0012977428 0.0005108239
000320 94 43 0c 3d 31 46 09 bd 48 d2 14 be c3 7f fc 3d
       0.034244135 -0.033514205 -0.14533341 0.12329056
000330 d2 75 77 bd ac d8 6e bd b7 b4 69 3d c4 1a 30 bd
       -0.060415097 -0.058312103 0.05705711 -0.042994276
000340 3c 08 4a bd d2 8f 0c bd bd 16 55 bd be ea 80 bc
       -0.04932426 -0.034316845 -0.052023638 -0.015736934
000350 06 70 05 be 5f e9 3d 3d ae b9 98 bc fb c9 70 3d
       -0.13031015 0.04636514 -0.018643226 0.058786374
000360 5b f3 63 bd d3 c7 2e 3b 99 8f 3c bc 3c 94 70 bd
       -0.055652004 0.0026669397 -0.011508846 -0.058735117
000370 b9 e7 10 bc 53 a0 6f bd 34 4a 7d bc ba 93 8c 3d
       -0.0088443095 -0.058502506 -0.015459586 0.06864114
000380 c2 bc 8f bd c3 5f 94 bd 56 23 77 bd 54 c8 0b 3c
       -0.070184246 -0.072448276 -0.060336433 0.008531649
000390 ef bb af 3d e3 56 37 bd b4 a9 fc 3c 8c 26 a8 3c
       0.08580767 -0.044760596 0.03084264 0.020526193
0003a0 51 82 7b bd d6 5b 81 bd 1d d9 b3 3d 21 bd ee 3c
       -0.061403576 -0.063163444 0.087816454 0.029142918
0003b0 4c 30 39 be da 62 44 3d b9 a6 86 bc 0f f8 1e 3d
       -0.1808483 0.047945835 -0.016436921 0.038810786
0003c0 93 92 62 3d a7 c3 38 3c 11 8d 70 bc 82 60 c1 bd
       0.055315565 0.011277116 -0.01468207 -0.094422355
0003d0 f2 33 16 bc 44 86 4b be 4b 8d 22 bd c9 18 ee bb
       -0.009167658 -0.19875437 -0.03968553 -0.007266138
0003e0 24 66 c0 3d 07 da 87 bb 2d 2d 7e bd 09 06 2b 3e
       0.09394482 -0.004145864 -0.0620548 0.16701521
0003f0 0e ba 97 3c 93 91 d9 3d 94 bc f7 3d 02 25 24 3d
       0.018521335 0.10623469 0.12096515 0.040074356

S6.bias f4 [84]
000000 0e a0 0e 3e cf fa 25 3e 11 98 8b bd 48 7f e1 3d
       0.13928244 0.16208957 -0.06816114 0.11010605
000010 c8 51 fd 3d 03 73 7a 3e 99 10 74 3e 69 fc 5e bd
       0.12369114 0.24457936 0.23834457 -0.054439936
000020 43 aa 55 ba 87 f3 10 3e 4d 5b 17 3c e8 5e b9 3e
       -0.0008150676 0.14155398 0.009238076 0.3620522
000030 2b b3 cd 3d af 5e ae bd 92 51 79 bd 60 f2 00 3f
       0.10043939 -0.08514153 -0.060868807 0.50369835
000040 de d8 00 3e 2e 0e 30 bd c3 c0 3b bd e7 33 bd 3d
       0.12582728 -0.042982273 -0.04583813 0.09238415
000050 cf b4 60 3e 0f 80 8d 3e 2a 45 29 3d 44 de 3c bd
       0.21943973 0.27636763 0.041325726 -0.046110407
000060 d8 d7 5d bd 0d a6 1a 3e 08 6e e9 bc 5a 1f 3b 3d
       -0.054160923 0.15102406 -0.02849485 0.045684196
000070 c7 f8 ad bd 02 1a 6c 3d 51 9c a9 bd 75 46 a6 bd
       -0.08494716 0.05764199 -0.08281768 -0.08118907
000080 f3 fb ed bd 74 df d5 3d b5 34 37 3e b8 77 2f 3f
       -0.11620321 0.10443011 0.178912 0.6854205
000090 12 03 3d be cc 5e 4e 3e 73 f4 1b be 78 16 e4 3d
       -0.18458202 0.2015335 -0.15229969 0.11137098
0000a0 90 a7 62 3d a2 ab e1 bb fa 6e 5e 3d 32 ef 60 3e
       0.05533558 -0.0068869153 0.054305054 0.21966246
0000b0 ba ee b5 bd d2 8d 8b 3e 2e cc 21 bb 94 b5 05 3e
       -0.08883424 0.27256638 -0.002468835 0.13057548
0000c0 c6 d8 88 3e 9b bf 57 bc f9 3a 9c 3b 0b 32 73 3e
       0.26727885 -0.013168241 0.0047677723 0.23749559
0000d0 24 85 75 3e ad 4a c9 bc cc 05 3a 3e 0e b1 7b 3e
       0.2397657 -0.024571741 0.18166274 0.2457926
0000e0 e0 3f 8c bd 56 47 16 3e 1f 50 9b bd da f4 8e bc
       -0.06848121 0.1467565 -0.07583641 -0.017450739
0000f0 23 22 29 3e 9d 56 a7 bc 6c ac 43 3d 98 3f 84 bd
       0.16516928 -0.020427043 0.047771856 -0.06457442
000100 2f 07 2a 3e 42 2c 78 be 2c 81 10 3e 12 fd 12 3d
       0.16604303 -0.24235633 0.14111775 0.035885878
000110 b2 77 68 3e b5 7e ef bc 38 38 af 3d 68 b3 9a be
       0.2270191 -0.029235223 0.08555645 -0.30215
000120 42 20 cc bc 60 07 60 be 13 68 54 3e 5c 7d 04 ba
       -0.024917725 -0.21877813 0.20742826 -0.00050540804
000130 de 49 5a 3b 5c e0 41 3c b0 82 9a bd 0d 40 13 3d
       0.0033308188 0.011833277 -0.07544458 0.035949755
000140 53 38 c8 3d 09 1e 13 bd cf b9 a5 3c 25 c3 4b bd
       0.09776368 -0.035917316 0.020230202 -0.04974665

S7.weight f4 [10, 84]
000000 a8 ff 8c 3e 7c a1 bd bd 1b 46 d1 3e cc 70 87 be
       0.275388 -0.09259316 0.408738 -0.26453245
000010 1b 79 c8 bd 63 d2 1a bf ab 6f 44 3e d4 7a 44 3e
       -0.09788724 -0.60477275 0.19183223 0.1918748
000020 e6 cb 0f be c9 11 fa 3c 15 3b f1 bc 48 b2 72 be
       -0.14042625 0.030526059 -0.029447118 -0.23700821
000030 d3 9a 1d 3e 7f 40 e0 bd d0 b5 49 3d 17 19 a6 3e
       0.15391092 -0.10949802 0.049245656 0.32441017
000040 ca f4 24 bf 60 12 2e be d8 81 39 3e 05 06 e1 3e
       -0.6443602 -0.16999197 0.18115938 0.43949905
000050 e6 89 28 3d 42 2b e9 3d 3d 45 0d be d7 f2 5c be
       0.041147135 0.11385204 -0.13795944 -0.21577011
000060 e8 cd f6 3d 41 9a ed 3d 8e f3 e8 bd 3f af 85 be
       0.12050992 0.11601687 -0.11374579 -0.26110265
000070 9c d8 6a bd 79 d4 02 be d0 9a c3 3c 71 4e 13 3e
       -0.05733548 -0.12776364 0.023877531 0.14385392
000080 c7 d6 b2 3c c4 95 87 be 1c 3e 1f bd 80 3e 65 3e
       0.02183093 -0.2648145 -0.03887759 0.22387123
000090 69 c4 1d 3e 95 f5 cc be c3 70 08 3e 60 07 30 bf
       0.15406956 -0.40031114 0.13324265 -0.68761253
0000a0 a5 57 ac 3e 89 b8 12 bd 16 2e 2d 3f 95 70 08 3f
       0.33660617 -0.035820518 0.67648447 0.53296787
0000b0 1f 84 86 3e 37 0c b9 3e 83 98 de be ea 3e 5e bd
       0.26272675 0.36142132 -0.43475732 -0.05425922
0000c0 61 5b 3a bf 69 f6 11 3f 6e 82 c2 3e 12 2f ea 3a
       -0.72795683 0.5701662 0.37990135 0.0017866811
0000d0 ae d0 f7 3e 1f 45 23 be c0 6d a7 3e 7f 5b 70 3e
       0.48401397 -0.15944336 0.3270092 0.23472403
0000e0 e5 13 f1 3c 35 a9 37 bf 3c 35 46 be d6 4a 9a bd
       0.029428432 -0.71742564 -0.19356245 -0.07533805
0000f0 34 e2 88 3e c5 58 9d bc 8b 30 5e be f8 23 03 3f
       0.2673508 -0.019207368 -0.21698205 0.5122676
000100 79 7b d9 be 86 81 16 3e b0 02 a0 be af ef 98 3e
       -0.42477015 0.14697847 -0.3125205 0.29870364
000110 11 83 08 be 53 73 ac bd 33 9e 2a 3e b2 6e 08 3e
       -0.13331248 -0.08420434 0.1666191 0.13323477
000120 f7 9c 31 be 2b 69 43 3e 35 4c 7e 3f 1a 12 de bd
       -0.17345034 0.19083087 0.9933503 -0.10843296
000130 df da 15 3f 91 9c 76 bd e9 39 30 3e 8f c2 24 bf
       0.58537096 -0.060207907 0.17209591 -0.6435937
000140 7f f6 ee 3a 73 a8 ab 3e 79 79 84 bc c3 9f 85 3c
       0.001823142 0.33526954 -0.016171204 0.016311532
000150 f9 a8 dc be 51 18 bf bc 8e de 65 3c f3 8f 92 3e
       -0.43097666 -0.023327025 0.014030112 0.2862545
000160 b3 ed 64 bd bc 06 f8 be d4 8c 53 3e 93 cf e6 3c
       -0.05589075 -0.48442638 0.2065919 0.028175151
000170 7a 6b d3 bd 16 ee 19 be 51 82 57 3c 94 26 ff 3d
       -0.10323234 -0.15032229 0.013153628 0.1245853
000180 ac 97 6b be 2b b5 e1 3c b4 79 3b 3d 6c 49 a0 be
       -0.23007077 0.027552208 0.045770362 -0.31306016
000190 01 08 24 3d 37 2f 43 3d e3 00 8d 3c 02 3a c3 3e
       0.040046696 0.04765245 0.017212337 0.38130194
0001a0 52 62 3f 3f e1 80 4f be ad c3 16 be 9b 04 75 3d
       0.747594 -0.20264007 -0.14723082 0.059818845
0001b0 b3 7b 06 bc 80 e8 c0 be 91 68 07 bb 9d 9a d5 be
       -0.008208203 -0.37677383 -0.0020661692 -0.41719523
0001c0 b5 7b e2 bb f8 b1 67 bd 73 56 62 bb 03 ce 57 bd
       -0.0069117197 -0.05656621 -0.003453639 -0.052686702
0001d0 7d af 21 3f 53 5c 93 3f bf ca b1 3d 86 ef 57 be
       0.631584 1.151255 0.08681249 -0.21087465
0001e0 46 55 21 be a0 f6 38 be 73 5f 32 be d6 34 c3 3e
       -0.15755185 -0.1806283 -0.17419223 0.38126248
0001f0 a7 bd e7 bc be 58 6c 3d 25 60 ab 3e d3 ad 37 bf
       -0.028288675 0.05770182 0.3347179 -0.7174961
000200 6a 98 3c 3d f5 9f 1f be 08 33 23 3e ed 2a 69 be
       0.04604379 -0.15588363 0.15937436 -0.22770281
000210 ba 2e 08 3d 5b ab dd be c9 fb a2 be 4d 71 b5 be
       0.033247687 -0.43294796 -0.31832722 -0.35438004
000220 e7 8d 38 bf 1e 9a 8f 3d d0 86 fc be 97 0f 40 bd
       -0.72091526 0.070118174 -0.49321604 -0.046889868
000230 92 c3 f5 3e e0 01 97 3e ec a1 ec bd 31 d9 51 bd
       0.4800077 0.29493618 -0.11554322 -0.05123252
000240 c8 1e d5 3e 7c 3f 9e 3e 9c 21 21 3e ec 4b 7b bc
       0.41625047 0.3090781 0.15735477 -0.015337925
000250 01 49 e6 bc ae 93 ed bc 37 a5 b5 bd ef 5a 75 3d
       -0.028110983 -0.029001083 -0.08869403 0.059901174
000260 40 49 28 3e 51 01 bc 3d 74 dc aa bd b2 de e3 3e
       0.16434193 0.091799386 -0.08342829 0.4450584
000270 5d b0 65 bd 95 06 71 be d3 b8 c8 3e de 3e 8c bd
       -0.056076396 -0.23537667 0.3920351 -0.068479285
000280 a5 0b 2b 3e 0d 0f da 3d 8f fb dd bb 4b 63 3e 3e
       0.16703661 0.10647402 -0.006774373 0.18592565
000290 9a a4 5c 3d 16 f8 63 bd 6f 46 fe 3c 25 76 a6 3d
       0.053867914 -0.055656515 0.031039445 0.08128003
0002a0 37 32 eb 3e 9e 0a a0 bd bb ca 33 bc b9 96 98 be
       0.45936748 -0.07814525 -0.010973628 -0.29802492
0002b0 aa bd 03 bf 0c e2 fa 3e 0a 24 f7 3d b4 e5 ef bd
       -0.5146128 0.49000585 0.12067421 -0.11713734
0002c0 08 4e a5 bd 36 7e a2 be 87 f6 e4 bd 82 12 c7 be
       -0.08071524 -0.31736916 -0.11179834 -0.38881308
0002d0 5f b9 87 bd a1 20 16 bd b5 90 6c be 96 95 1f 3f
       -0.066271536 -0.03665221 -0.23102076 0.62337625
0002e0 a0 7d 90 be a3 f3 7f 3d 75 dc 00 be cc 77 80 3e
       -0.28220844 0.06248821 -0.12584098 0.25091398
0002f0 da dc 21 bf dc 87 f0 3e 83 5c eb bd ee cb 27 3e
       -0.6322762 0.46978652 -0.114922546 0.16386387
000300 e8 b5 7b be 93 39 2e be 2a 48 18 3d 4d c9 27 3e
       -0.2458111 -0.1701415 0.037178196 0.16385384
000310 a5 86 c2 be e3 e9 4b be 29 36 e1 3e 02 4a 17 3c
       -0.3799335 -0.1991344 0.43986633 0.009233953
000320 2e ee c8 3e dd e7 bc 3d 61 4a 2e bf 82 5c 65 bc
       0.39244217 0.09223912 -0.68082243 -0.013999106
000330 8c 1c c1 3e 63 b4 b2 bd e2 78 9d 3e 6f 54 72 3e
       0.37717092 -0.08725812 0.3075629 0.23665021
000340 66 03 7c 3d 69 1b 83 3d ca c3 18 3d d9 de fc 3e
       0.06152668 0.064017124 0.037296094 0.4938877
000350 94 12 3c 3e dc a2 20 3f 14 65 4a 3e 38 45 8b 3e
       0.18366462 0.62748504 0.1976512 0.27201247
000360 11 98 41 3e 93 24 1a 3f b8 1a e2 be c4 91 b1 be
       0.18905665 0.6021206 -0.4416101 -0.34681523
000370 8e b7 1a 3f 2b c4 34 bd 84 c5 98 3e a3 98 5f be
       0.6043633 -0.044132393 0.29838192 -0.2183557
000380 7c 7f 94 bc bd 4d a8 3c fb aa 0d 3f 73 68 0a 3d
       -0.018127196 0.020544881 0.5533902 0.033791017
000390 1e 37 2b bf 50 25 4d be 39 26 34 3f 7e c5 d8 3d
       -0.6688098 -0.20033765 0.70370823 0.10584544
0003a0 d6 60 27 3f 2d 03 fd 3d 02 c2 f9 bd cc 31 55 be
       0.65382135 0.12354121 -0.12195207 -0.20819777
0003b0 1c bf 30 bf bd 5f 8a 3b 59 e9 7d be 3e c5 df 3d
       -0.6904161 0.0042228387 -0.24796046 0.10926293
0003c0 e6 bc 65 be 3d 5c d7 3e 72 29 3c bf 81 78 0d bd
       -0.2243534 0.4206256 -0.7350074 -0.03453875
0003d0 ce f0 d8 bd 2c a9 b2 3d 1d f6 16 3e 3e cf 10 be
       -0.10592805 0.08723673 0.14742322 -0.14141557
0003e0 8d 52 26 3d 74 f8 89 be 6c 90 6d be f7 96 c2 3c
       0.04060607 -0.26947367 -0.23199624 0.023753626
0003f0 07 18 18 be 6f fe a1 3e d3 b8 0a be b2 51 06 3e
       -0.14852916 0.3163943 -0.13547067 0.13117102

S7.bias f4 [10]
000000 09 f1 80 be df 99 8b be c0 08 27 3e 1b b0 b7 3e
       -0.25183895 -0.27265832 0.16311932 0.35876545
000010 76 b8 10 bf 50 91 ce 3e 11 20 14 3f 2c b5 ea bd
       -0.56531465 0.4034524 0.5786143 -0.11460337
000020 b7 f9 13 3c 54 a4 e2 be
       0.009031705 -0.44265997
