ex1_303166318_307955872/models/Lenet5 Dropout.pkl (torch, 250075 bytes, 10 tensors)

C1.weight f4 [6, 1, 5, 5]
000000 8d 9b 78 bf 7a 6e b7 3f fe df c8 be a0 b4 4c be
       -0.9711235 1.433059 -0.39233392 -0.19990778
000010 8b f7 87 bc ad 33 25 c0 8e f0 f8 3f bb 38 3f 3f
       -0.01659753 -2.581279 1.9448411 0.7469594
000020 9a f3 5e bd b3 80 71 be 6c 78 5c c0 64 be 02 40
       -0.054431535 -0.23584251 -3.44485 2.0428705
000030 dd 01 b8 3f 31 8d 62 3e f5 18 6b be 97 88 ea bf
       1.4375569 0.22124173 -0.22958739 -1.8322934
000040 7c 6c b4 3f 05 a5 41 3f 65 ac 76 bd 27 30 56 bd
       1.4095607 0.75642425 -0.060223002 -0.052292015
000050 e8 a3 40 bf 53 7c 6c 3f 08 d5 08 bf 25 03 74 3e
       -0.752501 0.92377204 -0.5345006 0.23829325
000060 a5 7e 75 3e 21 65 e1 bd 08 5e b4 3e 83 ba 3c 3f
       0.23974092 -0.11005617 0.3522799 0.73722094
000070 ae c1 35 bd 26 bb 3a c0 ca 59 eb be e5 0c e9 3d
       -0.04437416 -2.9176726 -0.4596694 0.113794126
000080 f0 14 11 3f d0 65 09 40 34 84 a5 3f 72 de 2e 3e
       0.56672573 2.1468391 1.293097 0.17077044
000090 2c de 4b 3e 5f 92 68 bf ec 20 ce 3e 8c 3b bb 3f
       0.1990897 -0.90848345 0.40259492 1.4627547
0000a0 34 5d 47 3e c4 95 9f 3c ba 1e 2d bf 3f 2d 01 be
       0.19469148 0.019480594 -0.6762501 -0.12614916
0000b0 3e 2e 2f 3c e1 a1 85 3d 01 ba 66 3d 76 15 61 bf
       0.010692177 0.065250166 0.05632973 -0.8792337
0000c0 d5 32 8b bf b3 b4 51 bf 3f 34 8a bd b4 99 1d 3f
       -1.0874888 -0.8191635 -0.067482464 0.6156266
0000d0 88 f4 11 3e 66 e9 3d bf 1c c7 e8 bf 41 e7 98 be
       0.14253438 -0.7418426 -1.8185763 -0.29863933
0000e0 c1 39 4f 3f a1 c1 ee 3f 70 5d a1 3e 9f 92 f8 bf
       0.809475 1.8652841 0.315166 -1.9419745
0000f0 36 b4 57 bf 58 e9 75 be 71 60 a2 3f 6f 53 86 3f
       -0.84259355 -0.24014795 1.2685682 1.0494212
000100 28 a3 b8 be 2f 50 0f bf 08 b9 14 bf 1b aa 8c 3e
       -0.36061978 -0.55981725 -0.58094835 0.2747353
000110 c9 d1 23 3f 1a 63 b0 be b5 c1 fb 3c 03 98 2f bf
       0.6399198 -0.34450608 0.030732015 -0.68591326
000120 57 38 f7 3c 22 6d cf 3e 6e 31 68 3e 2e d8 cd bf
       0.030178232 0.4051295 0.22675106 -1.6081598
000130 19 cf 3a 3f 85 f1 96 3f 9e c9 94 3e c6 7e de bf
       0.72972256 1.1792456 0.29060072 -1.7382438
000140 d0 33 b0 bf bf 44 2d 3f 76 ca 72 3f 55 ab e1 3e
       -1.3765812 0.67683023 0.9484018 0.44076028
000150 25 94 29 bf 78 53 de 3e ad 7d 98 3f a6 bb 0b 3f
       -0.66241676 0.43423057 1.1913353 0.54583204
000160 22 19 b5 3d fb 2f 05 3e 2f 91 4b 3f aa 9c a4 3f
       0.08842684 0.13006584 0.7951841 1.286031
000170 2a a2 00 bf 35 d6 ad be fe 16 51 3f 49 e0 06 3e
       -0.5024744 -0.3395249 0.8167571 0.13171495
000180 9c 08 28 3e da d7 8e bf e7 f0 95 bf 2f 3c 03 bf
       0.16409534 -1.1159623 -1.1714143 -0.5126371
000190 fa f5 ac 3e 88 20 9b 3f b5 fc 60 3e b2 fd 90 be
       0.33781415 1.2119303 0.219714 -0.28318554
0001a0 b6 9e 93 bf c0 bb 6c 3d ed 75 40 3f e3 a6 6f 3f
       -1.153281 0.05779624 0.7517994 0.93614024
0001b0 00 04 13 3f 0f 9f 3f 3f dc d0 a3 bf 0a 44 ab bf
       0.5742798 0.7485208 -1.2798114 -1.3380139
0001c0 f2 fb 55 3f a4 f3 63 3f e7 e4 af 3f 7d ce 96 bf
       0.83587563 0.8904364 1.374173 -1.1781765
0001d0 79 43 27 c0 3e da eb 3e 79 dc 6a 3f 54 ae b0 3f
       -2.6134932 0.46064943 0.91742665 1.3803201
0001e0 b7 f1 d0 bd 29 63 ca bf 72 c0 85 be 1e 85 48 3d
       -0.102023534 -1.5811511 -0.26123387 0.048955075
0001f0 cd 2c c6 3d 5d 56 b5 3f f0 e8 94 bc f0 ce eb 3e
       0.09676514 1.4166981 -0.01817748 0.46056318
000200 b9 ec d9 be d5 62 7e be 51 1c 5e 3f e8 4e ee bf
       -0.42563418 -0.24842389 0.8676196 -1.861783
000210 a2 b5 0d bf f2 1a c9 be 4f 58 17 3f 6f 22 b6 bf
       -0.55355275 -0.3927837 0.59119123 -1.4229258
000220 6b c6 93 c0 2f 36 d3 bf 82 b5 8c 3f 8e 80 a4 3f
       -4.617971 -1.650091 1.0992892 1.2851732
000230 fb 71 01 c0 f9 ab 94 c0 02 0f c6 bf e0 8d c8 3e
       -2.0225818 -4.6459928 -1.547333 0.39170742
000240 84 99 f9 bd 8f 25 ad 3f 03 67 b5 bf 1a 21 2e 3f
       -0.12187484 1.3527087 -1.4172062 0.6801926
000250 36 7c 4e 3f 14 be 29 be
       0.8065828 -0.16576415

C1.bias f4 [6]
000000 1c 6f db bd ff 84 0d 3e 90 5e 26 be 6d b6 65 be
       -0.10714552 0.13820265 -0.1624701 -0.22432871
000010 e2 d8 b4 bf c0 63 5b 3f
       -1.4128687 0.8569908

C3.weight f4 [16, 6, 5, 5]
000000 70 29 7b 3e 63 72 d6 be a4 c7 d6 be eb 99 62 3f
       0.24527526 -0.41884145 -0.4194919 0.8851611
000010 1c ff b6 be 6d 59 8b 3d c5 a7 c2 bd ee dd a1 be
       -0.35741508 0.06804166 -0.09504656 -0.3161463
000020 e3 ce 1f 3f c7 52 99 bc 93 aa 1e bb 01 4f ee 3e
       0.6242506 -0.01871623 -0.0024210557 0.4654465
000030 f0 2e ea be 25 68 2f bc d4 be f4 3e 59 15 83 be
       -0.45738935 -0.010705982 0.4780184 -0.25602224
000040 eb e2 e2 3e 1d 41 88 be 6e 47 7e be 49 69 0a 3f
       0.4431375 -0.26612177 -0.24831936 0.540669
000050 0d 93 6c be 7c 71 6d 3e 1d 3f db 3b 62 dc 9e be
       -0.2310297 0.23187822 0.0066908733 -0.31027514
000060 e3 3d 90 3e a3 ba 16 be 42 f2 bb bd 10 60 ad 3b
       0.28172216 -0.14719634 -0.091770664 0.0052909926
000070 e7 3c 3a 3e fc 88 cc 3d 05 8f 41 3d 2b 9c d0 3d
       0.18187295 0.09987065 0.047255535 0.10186037
000080 bc 40 75 be 04 35 57 bd c0 fd 63 3d 61 4a ee 3d
       -0.23950475 -0.052540794 0.055661917 0.116352804
000090 28 0e 65 3e 5c 86 3a be 72 62 1d 3d 04 3a 3f be
       0.22368681 -0.18215317 0.038423963 -0.18674475
0000a0 c0 ff b9 3d f0 72 e6 3d c5 21 07 3e 6e 42 7e bd
       0.090819836 0.11252391 0.13196476 -0.06207507
0000b0 77 c4 10 3e 93 80 06 3d ae 0f 5d 3e 90 1d a2 bd
       0.14137445 0.03283746 0.21588013 -0.07915795
0000c0 57 cb 94 bd 48 4d a1 3d 09 b1 2c 3e 79 fd 3e be
       -0.072653465 0.07876068 0.16864409 -0.1865138
0000d0 0b 43 7a 3c 70 f7 8a 3e 4c eb d7 be 2c 79 01 3d
       0.015274773 0.27141905 -0.42171705 0.0316097
0000e0 be 8b b2 3e ff 1f 25 bd 64 a2 89 3d 52 63 f0 be
       0.3487224 -0.040313717 0.06720427 -0.46950775
0000f0 56 d0 81 3d 16 0a 7c 3e 76 d8 2e 3e d0 77 8a 3d
       0.06338565 0.24613222 0.17074761 0.06761134
000100 f0 fc 84 3e 3f 69 bb 3e 41 70 70 3e 06 8e 2d bc
       0.25974226 0.36603734 0.23480321 -0.010592943
000110 a9 ac 86 be b3 52 f5 3e 4c 0f 7f 3e 44 4c ca 3c
       -0.26303604 0.47914657 0.24908179 0.02469457
000120 51 19 2d be 7b a2 8f be 02 f3 cc 3e b3 9b 0d 3d
       -0.16904189 -0.2805365 0.4002915 0.034572314
000130 34 c3 50 be 31 11 61 3d 7d 0a ab bd dd 3f f9 bd
       -0.20386964 0.054948036 -0.0835161 -0.12170384
000140 f6 1a 8d 3d 0a 63 12 bd 8d a1 80 be c4 49 20 be
       0.06889908 -0.035738982 -0.25123253 -0.1565314
000150 e4 ec a3 be fb 05 0a be 9b 69 30 3e 5f 03 24 be
       -0.3201667 -0.13478844 0.17227785 -0.16016911
000160 08 fa f4 bd 89 02 58 be 42 4b 2e be c9 d4 b6 bd
       -0.11961752 -0.21094717 -0.17020896 -0.08927304
000170 69 5a e6 3d 4a f8 49 be 3b b9 3c 3e a3 47 49 bd
       0.11247713 -0.19723621 0.18430035 -0.049140584
000180 8c 7d 42 be ac ba 15 3e 9f 56 e5 be e7 7d 8e 3e
       -0.18993205 0.14621991 -0.4479265 0.2783043
000190 eb 46 2c be cb ce 8e be ef ac a8 bd fe 40 32 3f
       -0.16823928 -0.27892146 -0.082361095 0.6963042
0001a0 0f 24 1a bf d7 06 eb bd 54 ef 03 be ee 07 70 be
       -0.6021127 -0.11475914 -0.12884265 -0.23440525
0001b0 f3 3c 41 3e d2 20 dd be 79 35 d5 3d c0 14 0f 3e
       0.18870907 -0.43189102 0.1041059 0.13972759
0001c0 71 0c ae bd f1 3a 5e be a0 9f dd be 9a 87 34 3e
       -0.08498467 -0.21702172 -0.43285847 0.17629853
0001d0 07 d0 ae 3e a6 31 f4 bd 75 e1 39 be 55 6b c3 be
       0.34143087 -0.11923532 -0.18152411 -0.38167825
0001e0 7c c5 e4 3d 8f 16 1a 3d 68 83 8a be 7f ec ca 3d
       0.1117048 0.03761917 -0.2705338 0.09908389
0001f0 6b 61 f7 bd f5 0a bc be de ce ed be 64 e1 9e 3e
       -0.12079128 -0.3672711 -0.4644689 0.31031334
000200 ed e3 2b 3e d5 84 95 be 43 07 a4 be f6 02 94 be
       0.16786166 -0.29202905 -0.3203679 -0.2890851
000210 dc 01 27 3e 8e 3c b0 3e 66 ed 33 be 60 5c f8 bd
       0.16309303 0.344212 -0.17571029 -0.12126994
000220 b4 fc a4 be d6 d3 bb 3d dd c1 b6 3e be 8c 13 be
       -0.32224047 0.09171264 0.3569478 -0.14409158
000230 63 1a 01 3e b0 c0 4f be 29 15 95 be 56 70 a1 3e
       0.12607722 -0.20288348 -0.29117706 0.31531018
000240 07 4f a7 be 62 88 d5 3d 25 a7 6a be 69 9d fa be
       -0.3267748 0.104264036 -0.22915323 -0.4894822
000250 14 40 25 3f 44 1c b0 be c8 e5 91 3e be 0b 13 bf
       0.645509 -0.34396565 0.28495622 -0.5743979
000260 d0 65 04 bf 4f 90 ae 3e 85 62 f1 be f3 31 bd be
       -0.51717854 0.34094474 -0.47145477 -0.3695217
000270 b8 55 21 bf 88 2a 9c bd 58 5e 2d bd 71 fc 3a bd
       -0.6302142 -0.076253 -0.0423263 -0.045650903
000280 26 8b 10 bf fa d2 e8 be f5 c3 88 3e 82 76 87 be
       -0.56462324 -0.45473462 0.26712003 -0.26457602
000290 7a 69 da be 1b 4f d3 be 67 8f 3a bd 36 6b e0 3e
       -0.42658597 -0.4127129 -0.045546915 0.43831795
0002a0 6a 98 2a 3e 78 4c 8c bd c8 39 06 be c1 0b 16 3e
       0.16659704 -0.06850523 -0.1310798 0.14652921
0002b0 5e 38 b8 bd 2d 48 fe be 4e 70 12 be b1 e0 f8 3e
       -0.08995126 -0.4966444 -0.14300653 0.48608926
0002c0 8b e9 99 3e ae 02 69 bc 17 2c ec bd ac 1d 1e 3e
       0.30060992 -0.01422183 -0.11531847 0.15441006
0002d0 48 2d ef 3c 81 da 40 bf 1a fd 43 bf c4 d2 f6 bd
       0.029196396 -0.7533341 -0.7655808 -0.12051919
0002e0 ca 51 31 be c8 6c 09 bf c6 a7 47 bf 09 05 07 bf
       -0.17316356 -0.5368161 -0.77990377 -0.5274206
0002f0 e9 3a b4 bd 97 d0 a0 3e c9 b7 e8 be 2c 18 13 bf
       -0.08800299 0.3140914 -0.45452717 -0.5745876
000300 2a ec d6 3c c7 eb ad 3e a8 3d 44 3e 28 ae 8e 3e
       0.026235659 0.33968946 0.19164145 0.27867246
000310 a0 5b 0a be 2c fa 5b 3f c1 13 de 3e e5 e1 ff 3d
       -0.13511515 0.85928607 0.43374446 0.12494258
000320 06 6e d0 3d 8d 30 86 be 2b a4 22 3e f5 54 d6 be
       0.10177235 -0.26208916 0.15882938 -0.41861692
000330 83 70 73 be 44 9b fd 3d 71 e3 bc be 8e 8d ec bd
       -0.23773389 0.1238313 -0.36892274 -0.11550437
000340 fc 3f 05 bf de 0f 1e 3a 21 e4 bf be 5c fc 9d be
       -0.5205076 0.0006029586 -0.37478736 -0.30856597
000350 fd 73 83 3e 6b 6f ae 3d 27 84 88 3e e3 24 3c be
       0.2567443 0.08517345 0.26663324 -0.18373446
000360 a8 12 9d be d8 e7 ff bd 9d 4f b2 3e dc 7b 12 be
       -0.30678296 -0.124953926 0.34826365 -0.14305061
000370 57 b3 b9 bd e1 a9 73 be e3 b0 8e be 03 8d 8c be
       -0.090674095 -0.23795272 -0.2786933 -0.27451333
000380 56 c8 0b bf 1b 93 c8 3e 9a 7d 15 bf 0c 4c c5 be
       -0.54602563 0.39174733 -0.5839478 -0.38534582
000390 b7 f8 bf be 23 e0 a0 be 50 26 9f bd 2f 48 2b bf
       -0.37494442 -0.31421003 -0.077709794 -0.6690702
0003a0 a8 17 50 be 9f 7e 2c 3d 3f 4c 8f 3d da c9 49 bf
       -0.20321524 0.042112943 0.06996965 -0.78823626
0003b0 dd 1b 50 be 7f ee 5d 3e ff 48 9c 3e 26 15 9b bd
       -0.20323129 0.2167301 0.30524442 -0.07572393
0003c0 9b 9e e3 be 33 19 0c be c3 34 27 3f 30 9a 52 3f
       -0.44456944 -0.13681488 0.65314883 0.8226652
0003d0 c3 5b e6 bd 49 6b 16 bf 33 36 9b be 12 c0 47 3f
       -0.11247971 -0.58757454 -0.30314788 0.7802745
0003e0 80 4b 8a 3e 01 66 21 bf 43 6f 34 be a5 9d c7 3d
       0.27010727 -0.6304627 -0.17620568 0.09746865
0003f0 cb 1f 09 3d 19 94 bc 3e db 89 81 bc 1d 02 00 be
       0.033477586 0.3683174 -0.015812805 -0.12500806

C3.bias f4 [16]
000000 15 15 33 bf fb 94 e1 bd bd bf c8 be 94 e4 ae bd
       -0.69954044 -0.11014744 -0.39208785 -0.085396916
000010 67 f9 02 3f 8f 89 11 bd 35 fa 43 bf 46 f2 fd 3d
       0.5116181 -0.035531577 -0.7655366 0.123997256
000020 6e 9d 97 3d ab 69 e6 3e 26 f0 3d 3f 95 2c b6 3e
       0.07403074 0.45002493 0.7419456 0.35580888
000030 ea df d0 3f ef 04 11 bf e8 4e a2 3d 44 5e 4d be
       1.6318333 -0.56648153 0.079252064 -0.2005549

S5.weight f4 [120, 400]
000000 d7 e7 17 be 6a a8 59 be e1 91 39 bd f4 a2 8d bc
       -0.14834534 -0.21255651 -0.045305137 -0.017289616
000010 34 ec 2a 3d 83 1e 95 bd c1 fb c5 bc 31 80 02 bc
       0.041729167 -0.0728121 -0.024167897 -0.0079651335
000020 90 81 7f bc 7a 5b 43 bd a2 06 ec b6 c1 a9 99 bd
       -0.015594855 -0.04769466 -7.0341202e-06 -0.07503081
000030 bf c3 23 3d f0 3f 3f bc e0 c1 18 3e c9 03 c8 bd
       0.0399816 -0.011672959 0.14917707 -0.09766347
000040 ea f4 f5 bd 9e 37 ad bd 3e 31 30 bd 9a fc a1 3c
       -0.12009604 -0.08457874 -0.04301571 0.01977377
000050 c5 e9 b4 bd 5a 88 0e be 87 01 58 bd a1 f2 01 3d
       -0.088336505 -0.13919201 -0.05273583 0.03172553
000060 db 68 c4 3d 32 12 cc be 51 94 17 be e0 ee 28 3e
       0.09590312 -0.39857632 -0.14802672 0.16497374
000070 59 d3 5f be fa 10 9e be 47 b7 f0 bd 74 f4 33 3e
       -0.21857966 -0.30872327 -0.117537074 0.1757372
000080 ad 21 01 3e 34 7b b0 bd 58 14 c1 3d 81 17 77 3e
       0.12610503 -0.08617249 0.094277084 0.2413006
000090 7f 12 aa 3e 3c bf 1b be 79 39 3b be 65 b4 f3 bd
       0.33217236 -0.15209669 -0.18283643 -0.11899642
0000a0 50 b4 f6 3e 72 5b 82 bc 95 a1 f7 bd fe 9d 37 bd
       0.48184443 -0.015912745 -0.12091366 -0.044828407
0000b0 a8 a3 25 3e e4 55 7d 3e fd 14 e3 3e 42 5e 9b 3d
       0.16175711 0.24739796 0.4435195 0.075863376
0000c0 09 72 c2 3d b4 14 41 3c b8 13 02 3c 00 b6 e0 bc
       0.09494407 0.011784721 0.007939272 -0.027430534
0000d0 0f 6c f6 bb 74 7e 4c bd b8 bf 83 bd 89 20 0a 3d
       -0.007520206 -0.049925283 -0.06433052 0.033722434
0000e0 7c 0e 30 bd c9 b8 c6 bc 54 6c 3a bc f2 d5 dd bb
       -0.042982563 -0.024258034 -0.0113783665 -0.006769889
0000f0 94 6f 7c bd 85 55 dd bc 51 08 b8 bd 35 3e 2e 3c
       -0.061629847 -0.027018318 -0.08985961 0.0106349485
000100 bd af 86 bd ba 9a a4 bd 93 3f d4 bc 19 6b a7 bc
       -0.06576488 -0.08037324 -0.02590922 -0.02043681
000110 5f b7 ff bb c6 d3 6e bd 4f 6f 74 bb 56 2d f3 bd
       -0.007803842 -0.05830743 -0.003729779 -0.118738815
000120 5f c5 bb 3c a1 f3 86 bd f9 d6 1d bd 3e 90 98 bb
       0.022921262 -0.06589437 -0.038535092 -0.004655867
000130 c8 dc 42 bd 47 18 9a bc 41 c1 5e bc 89 13 5f 3c
       -0.047573835 -0.018810404 -0.01359588 0.013615497
000140 7a 38 a1 bc 0e d3 02 bc 94 99 43 bd 66 aa 5e 3d
       -0.01968025 -0.00798489 -0.047753885 0.054361723
000150 26 81 aa bc 9a b8 9a 3b 3a 36 7a bd b0 5e 4c bd
       -0.020813536 0.0047217133 -0.06108687 -0.04989499
000160 88 b6 a5 bc f1 ee 75 3d e6 52 5c 3d 82 76 84 bd
       -0.02022864 0.060042325 0.053789996 -0.06467916
000170 e8 e3 a0 bd c0 e2 ce bb 32 9b 90 3b 08 61 82 3d
       -0.0785597 -0.006313652 0.004413032 0.063661635
000180 93 2e 1d 3d 41 b7 3e 3c 7d a5 a0 3b 3d 28 8d 3d
       0.038374495 0.011640371 0.0049025402 0.068924405
000190 58 36 15 bd 2a da 1a be bb a2 9c bd 33 79 e7 3d
       -0.03642878 -0.15122285 -0.07648226 0.11302414
0001a0 37 00 db 3d 6c 38 0d be ed 3f cb bd 74 4a d3 be
       0.106934 -0.13791054 -0.09924302 -0.4126774
0001b0 91 52 c8 bb e1 b3 cb bc 6d b9 7e bc fd 29 7a be
       -0.0061133583 -0.024866046 -0.015547139 -0.2443008
0001c0 cd 7c 03 be 0c 98 03 be 7b c2 b1 bc ca cb f3 3d
       -0.12840576 -0.1285097 -0.02169918 0.11904104
0001d0 38 0c 0e be 0d 5d 3f bd 10 ac 84 bc 10 d0 fd bd
       -0.13871849 -0.0467196 -0.016195327 -0.123932004
0001e0 98 69 e8 3d d9 17 4b 3e b0 71 96 3c ee 01 3f be
       0.113482654 0.19833316 0.018364757 -0.1865308
0001f0 a3 ba a2 3e 54 0c 79 3b ff 36 56 3c 15 66 2c 3d
       0.31783018 0.0038001733 0.0130746355 0.04208954
000200 ba cd 8a bd 92 89 b4 3d 2b 32 2c 3d a8 1a cf 3c
       -0.067775205 0.08815302 0.04204003 0.025281265
000210 02 0a cf 3c 95 88 da bc 0a 86 e2 3c 64 f0 1c 3d
       0.025273327 -0.026676456 0.027651805 0.038315192
000220 b5 fe 9f bc 10 9b dc 3c 41 b6 e2 3c 92 cf db 3a
       -0.019530633 0.026929408 0.027674796 0.0016770235
000230 78 c7 9b bc ea 77 61 bc 09 bb 82 3c e5 68 b3 3c
       -0.019016013 -0.0137615 0.015958326 0.021900604
000240 80 5d 2b ba 86 cc 48 bd da 65 6e bc bc 81 9b 3d
       -0.0006537065 -0.049023174 -0.0145506505 0.07593104
000250 6e 9f 65 bd 86 16 8c bb b4 41 1c be 61 28 3f be
       -0.056060247 -0.004275146 -0.15259439 -0.18667747
000260 f6 2c a7 bb ec 85 90 3d af 24 c9 bd d3 1b c9 3c
       -0.0051017953 0.070567936 -0.0982145 0.0245494
000270 c6 90 24 be c6 04 25 be b2 b1 14 bd 17 fa fd 3c
       -0.16070852 -0.16115102 -0.036302276 0.031003041
000280 e5 d0 10 3d 8c c2 81 3e 96 27 c0 3e f7 fb 4f be
       0.035355467 0.2534374 0.37530202 -0.2031096
000290 11 f5 33 be f8 47 35 3d f1 48 fe 3d dd d9 07 3d
       -0.17573954 0.044258088 0.12416256 0.033166755
0002a0 97 32 76 3d 7a 72 d6 bd 04 ed a9 3e 11 4b a3 3e
       0.06010684 -0.104710534 0.3318864 0.3189321
0002b0 b0 82 da bd cd 2d cb bd a1 5a 76 3d 8b ff 88 be
       -0.10669458 -0.09920845 0.060145024 -0.26757464
0002c0 d6 c9 ed ba eb 42 61 3d d9 01 d4 3d 1b b1 87 3e
       -0.0018141817 0.05499546 0.10351915 0.26502308
0002d0 93 9f 6c be 7e 0a f9 3b 99 08 dc bd ce 6b 4e 3e
       -0.23107748 0.0076001277 -0.107438274 0.20158312
0002e0 52 91 8b 3e 7f fd 6a 3d e1 77 b3 3d a9 9b 79 be
       0.27259308 0.05737066 0.087630995 -0.24375786
0002f0 6e 39 51 bd 6d e4 0a 3e 9d 74 56 3e 97 1c 2e bd
       -0.05108016 0.135637 0.20942922 -0.042507734
000300 77 cc 66 bd 2c a3 f6 3c ea 1a bd 3d 3d 20 cc bd
       -0.056347337 0.030107103 0.09233649 -0.099670865
000310 2d 7a cc bc 14 b4 97 bd 19 14 ca bd 7f 29 2e bd
       -0.024960602 -0.07407394 -0.098671146 -0.042520043
000320 d5 34 a3 bb a0 c4 61 3d d1 1b 10 be e0 80 5e 3d
       -0.0049806633 0.055119157 -0.14073111 0.054322124
000330 78 1f 57 be 11 a5 5b 3e ed aa 74 3e 69 81 ff 3d
       -0.21008098 0.21449687 0.23893328 0.12475855
000340 4f b5 64 3e 85 0b 08 3e a6 50 8b 3d 89 76 ec bc
       0.22334789 0.13285644 0.06802492 -0.028865116
000350 85 21 5b 3e ae 44 2b 3e ae 7f 55 bd b9 e4 a2 3e
       0.21399505 0.16725418 -0.052123718 0.31815127
000360 5a 0b 0f bd f6 aa 8d 3e 22 9a 06 3e 02 a2 9a be
       -0.034922935 0.27669495 0.13144735 -0.30201727
000370 4d cb 3a 3e f7 3a f4 bd 10 e3 97 3e 17 f7 8f be
       0.18241616 -0.11925309 0.29665422 -0.28118202
000380 1b b2 93 be 8a b9 55 bd a4 e7 51 be 59 67 8a be
       -0.2884682 -0.052178897 -0.2049852 -0.27031973
000390 64 35 cb bc f4 e0 fd 3d 66 5a ea bd f6 d1 34 be
       -0.024805732 0.12396422 -0.114430234 -0.17658219
0003a0 d3 3d 1f be 66 ca e2 bd 0c 52 a7 be d3 cf e5 3d
       -0.15550928 -0.11073761 -0.32679784 0.1122128
0003b0 e3 15 48 3c 83 5a d0 be b5 0b e7 be d4 21 21 bf
       0.012212249 -0.40694055 -0.4512612 -0.6294224
0003c0 46 87 8a 3e c9 99 ac 3e 39 39 55 be be c1 00 bf
       0.2705633 0.3371108 -0.2082261 -0.5029563
0003d0 5b bb 4d be 35 8e 84 3e e1 57 83 3d ac 4b d3 be
       -0.20091002 0.25889745 0.06413246 -0.4126867
0003e0 93 27 78 bd 83 c2 38 be f9 96 bc bc 78 54 02 be
       -0.060584616 -0.1804295 -0.023021208 -0.12727535
0003f0 17 1d 8f be d5 6e 8c be 7e b2 ec bd 4a bd 2b 3d
       -0.2795188 -0.27428308 -0.11557482 0.041928567

S5.bias f4 [120]
000000 25 72 81 3c 78 b6 d7 bc 37 9a 92 3e 3e 2c 16 bd
       0.015801499 -0.026332125 0.28633282 -0.036663286
000010 0f 60 03 be ff f7 a2 3d be 64 b7 3e ea 91 42 3e
       -0.12829612 0.07957458 0.35819048 0.19000974
000020 51 b6 a6 3d be 60 19 3d 32 76 f5 bc 21 c6 f4 be
       0.08140243 0.037445776 -0.029963586 -0.4780741
000030 49 34 17 3e 78 eb 72 be e8 ba 28 bd a3 73 0f be
       0.14766039 -0.23722637 -0.041193873 -0.14008956
000040 cc 7e 33 bd 35 08 7e be 1f 76 fd bd 62 ef d1 bc
       -0.043822095 -0.24807818 -0.123760454 -0.025626842
000050 a9 ce 75 3d 4f a1 a2 3d 92 5b 21 be 87 5d b4 be
       0.06001154 0.079409234 -0.15757588 -0.35227606
000060 5a eb 37 3d da 50 e9 bd a1 5d 50 bd 85 2e 18 be
       0.044902183 -0.11392374 -0.05087054 -0.14861496
000070 2a be aa bd e3 3d eb 3e a1 77 d2 3b ed 6e 9e bd
       -0.08337052 0.45945653 0.0064229523 -0.07736001
000080 e9 9a 17 bc 5e 67 4a 3d 02 4e 88 bd 3c 2a be 3d
       -0.009253242 0.049414985 -0.06655504 0.09285399
000090 55 3f a5 3d 26 ed 78 bc 2b 49 c4 3d 6f 26 b9 b9
       0.0806872 -0.015193259 0.09584268 -0.00035314585
0000a0 3e b8 dc bb fc 2a 81 3e 93 b0 39 3d 66 3a 04 be
       -0.0067358306 0.25228107 0.04533441 -0.12912902
0000b0 94 f2 0e be f8 f3 97 3d db 8b 93 bd d5 80 3d bd
       -0.13959724 0.0741958 -0.0720441 -0.046265442
0000c0 09 46 8c 3c 6a 54 9d bd 24 36 55 bd 40 99 8d bd
       0.01712324 -0.07682116 -0.052053586 -0.06913996
0000d0 a8 8c 34 bd ef 3f f2 3e e9 42 a1 3c 7e e8 10 be
       -0.044079453 0.47314402 0.019685226 -0.14151189
0000e0 c7 fa d3 bd ac d1 d5 bc 78 6c 2c bd ef 1e c1 3e
       -0.10350566 -0.026100956 -0.04209563 0.37718913
0000f0 6d 67 99 bd 44 f0 08 bf 45 09 01 be 65 ff 5b 3e
       -0.0749043 -0.53491616 -0.12601192 0.21484144
000100 33 6f 19 bd 9d db a4 be c0 bb 83 bd 3c 63 4b be
       -0.037459563 -0.32198802 -0.06432295 -0.19862074
000110 ab 99 65 bd 96 52 be bd 06 5c e5 3c b6 99 dd 3d
       -0.056054752 -0.09293096 0.027997982 0.10820334
000120 38 8b 39 3e c0 44 9d 3d 55 6e a5 3d 7c f6 8d 3e
       0.18119514 0.07679129 0.08077685 0.27727115
000130 7c 01 34 be 33 3c 28 bd e6 9f c1 3d 98 45 1f 3c
       -0.17578691 -0.041073035 0.09454326 0.009721182
000140 a1 cc 79 be 3c 3d c8 bb 97 69 5e bd 69 52 d9 3d
       -0.24394466 -0.0061108153 -0.054299917 0.106114216
000150 8b b0 35 3e ec 2f 32 bf b3 9c 1f be ac c4 28 bd
       0.17743127 -0.6960437 -0.1558712 -0.041203186
000160 56 71 59 bd e5 b4 6b 3d 60 97 e2 3b 39 7a 3d be
       -0.0530866 0.05754556 0.006915018 -0.18503655
000170 d1 c6 83 3a 1f 38 bc 3d 35 9b b1 3d c9 bb 94 3e
       0.0010053759 0.09190392 0.086721815 0.2904952
000180 03 03 ba 3e 2b 8c f3 3d cc 76 09 bd b9 c6 2f 3c
       0.36330423 0.11891969 -0.03356056 0.0107285315
000190 08 86 1b bc de 2b 26 bd d4 e2 9e be 28 5e 1b 3d
       -0.009492405 -0.04056918 -0.3103243 0.03793159
0001a0 70 d5 8f 3c ae 33 aa be e9 ad 15 be 97 48 78 3d
       0.01755783 -0.33242553 -0.14617123 0.060616102
0001b0 bb be 32 3e 61 77 af 3c 93 c8 ce 3e d1 e0 c1 bd
       0.1745557 0.021419229 0.403874 -0.094667085
0001c0 4b 77 2d be aa 40 5d be a8 20 8e bc 94 62 c7 bc
       -0.16940038 -0.21606699 -0.017349556 -0.024338998
0001d0 f9 f0 f5 bd d3 15 c4 bc 60 7b 8c bc 68 37 2f be
       -0.120088525 -0.023936188 -0.017148674 -0.1711098

S6.weight f4 [84, 120]
000000 15 c1 c8 bd b4 5f 3b be 4f d5 b1 bd f2 9e 44 3c
       -0.098024525 -0.18298227 -0.086832635 0.012000786
000010 73 26 0f be f0 47 3c 3c 51 67 46 bd bb 9a 0a 3e
       -0.13979511 0.011491761 -0.048438374 0.13535587
000020 78 28 a5 3d 3d c2 d4 3b c1 19 ef 3d 0b a1 ae bc
       0.080643594 0.0064928816 0.11674834 -0.021317026
000030 e9 3f 46 3d a3 45 93 bd a2 0a b8 ba d2 ef ad bd
       0.048400793 -0.071910165 -0.0014041255 -0.08493008
000040 2e a0 15 bd 53 dc 16 bc b8 44 80 bd 50 ba 19 bd
       -0.036529712 -0.009207803 -0.06263107 -0.037531197
000050 54 8f 0f 3d e6 d4 f8 3b 64 8e 8f 3c 81 60 01 3e
       0.035048798 0.007593739 0.017523952 0.1263447
000060 68 4e 94 3a 75 7c c4 bc 61 ae 19 be 51 c3 ef bd
       0.0011314871 -0.023985127 -0.15007927 -0.117071755
000070 7c 97 81 3d c8 22 47 3b 16 74 16 bd 1b a8 cd 3d
       0.063277215 0.0030385721 -0.036731802 0.10041829
000080 3d 3e 9a bd 51 0b 3a 3c a9 ce dd bc 14 bf 15 3e
       -0.07531402 0.011355237 -0.027076082 0.14623672
000090 98 fc 72 3e d9 36 f6 bd f8 fe 5e 3e 47 a1 25 be
       0.2372917 -0.1202218 0.2177695 -0.16174804
0000a0 fb f1 02 bd fa 8a fa bd 49 40 8f bc b0 19 33 be
       -0.03196905 -0.12233539 -0.017486708 -0.17490268
0000b0 84 77 de bc 46 9b 81 bd b0 99 18 be fa 5f 84 bd
       -0.027156599 -0.06328444 -0.14902377 -0.064636186
0000c0 2d 54 e7 bd d1 be 86 bd b8 33 f9 bd 99 31 92 3c
       -0.11295352 -0.06579364 -0.12168068 0.017845916
0000d0 b1 3c 18 3d 08 a8 17 bd 38 ae b1 bd d5 14 f4 3c
       0.037167255 -0.03702548 -0.08675808 0.02979509
0000e0 a8 2f 88 ba 46 5d 5a 3c bd 75 26 3c 95 28 63 3d
       -0.0010390179 0.013327902 0.010159907 0.055458624
0000f0 e0 a9 54 3d 12 7d fa bd 41 b7 96 bd 0f f1 7e bd
       0.051919818 -0.122308865 -0.07359172 -0.06224161
000100 8c 38 0e be d6 ff 2f bd c7 8b ec 3d a5 e8 01 3d
       -0.13888758 -0.042968594 0.11550098 0.031716008
000110 d4 dd d7 3c fc d3 aa 3d 70 53 f7 bc 87 22 05 3c
       0.026350893 0.08341214 -0.030191153 0.008125908
000120 d2 8b 5b be 42 53 0d 3d b8 82 64 3d aa ce 36 bd
       -0.21440056 0.03450323 0.055788726 -0.044630684
000130 40 df 1d be 32 13 1a bd bf 40 f8 3a c4 72 08 3e
       -0.15417194 -0.037615962 0.0018940194 0.1332503
000140 65 a0 d9 bd 7f 36 59 be df 55 a4 bd 3d 63 52 3e
       -0.10626296 -0.21212195 -0.08024191 0.20545669
000150 62 9a 8f bd 1c 2b 8a bd 03 4c c5 bd c9 a9 30 3d
       -0.07011868 -0.06746504 -0.09633639 0.04313067
000160 d8 d4 1f be 40 cd 57 3d 43 67 b2 3d 6a 6d fa bd
       -0.15608537 0.052685976 0.08711102 -0.122279
000170 ee 23 1b be 73 9f 47 be d7 02 c5 3d 55 a2 3c be
       -0.15150425 -0.19494419 0.09619682 -0.184213
000180 c1 d1 a4 3c a3 06 03 be ec 56 08 bd ad b0 ec 3d
       0.02011955 -0.127955 -0.03328602 0.11557136
000190 f0 8f 29 bd 49 9c 14 3d 30 8e ec 39 ae 00 84 bc
       -0.041397035 0.036281858 0.00045119366 -0.016113605
0001a0 ed e5 80 bd 16 c4 5d be e0 bc 3e 3d 62 93 8f 3e
       -0.06293855 -0.21656832 0.046566844 0.28042132
0001b0 1e ec 3b 3d 25 cc 0c be cb ba 3e be 6e 55 4e be
       0.045879476 -0.1374975 -0.18625943 -0.20149776
0001c0 43 78 21 3e 85 a0 c1 3d 84 7c e6 b9 f9 61 83 bc
       0.15768532 0.09454445 -0.0004396179 -0.016037928
0001d0 26 af 8a bd e0 52 c0 3c 65 38 ed bc c5 4b 6a bd
       -0.06771688 0.023477018 -0.028957555 -0.057201166
0001e0 36 2b a9 bb 0e 62 2d bd 99 0a d3 3e db 98 40 3d
       -0.005162622 -0.04232984 0.41219023 0.047020774
0001f0 ba 21 ce bd 48 a1 16 bf 54 e5 6e be 42 99 80 bd
       -0.100650266 -0.58839846 -0.23329669 -0.062792316
000200 30 51 5e be e0 a8 54 bd de 6e 93 3c e9 01 bd bd
       -0.21710658 -0.051918864 0.017997202 -0.0922888
000210 a8 c1 f2 bd 76 62 c5 be 7a ac 95 bd 45 b4 32 bd
       -0.11853343 -0.38551682 -0.07308288 -0.04362895
000220 73 c9 9c bd 5e e1 4c 3d d1 df 99 bd 12 69 aa 3d
       -0.07655611 0.050019614 -0.07513393 0.08320822
000230 59 5e 23 bd b7 c2 65 be 7a 0e 1e 3c be d4 a5 be
       -0.0398849 -0.22437559 0.009647006 -0.32388872
000240 f8 21 52 3d 36 0c f8 3d d1 36 a0 bd dc 22 53 bd
       0.051301926 0.12111704 -0.078229554 -0.051546916
000250 ed b7 7f be 9c db 01 3e 1e fe 43 be e6 e5 fc bd
       -0.24972506 0.1268143 -0.19139907 -0.12348537
000260 0f 70 65 3d 32 5e 44 3e 06 84 39 bd b2 f3 bf bc
       0.05601507 0.19176558 -0.045291923 -0.023431633
000270 cb 38 95 be bf 40 d0 bc fe 91 ab be 0d 6a 8b 3d
       -0.29144892 -0.025421498 -0.3350982 0.06807337
000280 4d f8 6d be d3 67 44 be 38 fa 33 be d4 9e 2e 3d
       -0.2323925 -0.19180231 -0.1757592 0.04263194
000290 1c cb 0d bb c0 af 09 be 7a b4 85 bb a9 20 3f be
       -0.0021635955 -0.1344595 -0.0040803524 -0.18664803
0002a0 70 f3 88 bd cc 9a 20 be 98 a7 08 bd 1c df ba bd
       -0.06687057 -0.1568405 -0.033362955 -0.09124586
0002b0 12 78 7c 3d 30 3a 3a 3e 81 3d 07 be 45 a3 3c be
       0.061637945 0.1818626 -0.13207056 -0.18421657
0002c0 ff c4 55 bd 5e 98 03 bd a8 9b a1 3a c2 3b 3f be
       -0.052189823 -0.03212773 0.0012329714 -0.1867514
0002d0 64 74 d0 be da 24 5d bd ea 01 4e 3e 72 60 c8 bc
       -0.407138 -0.053990223 0.20117918 -0.024460051
0002e0 e8 a1 5f bd f9 d8 9c bd a5 62 12 be 76 7d d1 3d
       -0.054597765 -0.07658572 -0.14295442 0.10229008
0002f0 e8 5f 87 be a4 a9 37 3d e1 3b 78 3d 23 38 98 bd
       -0.26440358 0.044839516 0.06060398 -0.07432582
000300 77 23 9e bd 2c 93 03 be 57 aa 2d bd 0c c5 74 3e
       -0.07721608 -0.1284911 -0.042398777 0.23903292
000310 55 9e 56 bd 37 66 91 3d 5c d7 27 3c 7f 06 b4 bc
       -0.05239709 0.07099574 0.010244217 -0.021975754
000320 00 69 3e be d1 9e c0 3d ac 5e a4 bb 28 62 50 be
       -0.18594742 0.09405292 -0.0050161686 -0.20349944
000330 ed 9e e4 3d 4f d7 7a be 21 0c 18 3e 89 04 39 bd
       0.11163125 -0.24496196 0.14848377 -0.04517034
000340 41 fb 0c be 47 ec 21 be e4 12 94 be eb c4 0e 3d
       -0.13767721 -0.15812789 -0.28920662 0.034855764
000350 ee 11 00 3e 76 96 23 3d 77 ec 05 be ce 23 38 3d
       0.1250684 0.039938413 -0.13078485 0.04495602
000360 7f 97 6c be 52 72 41 bb 32 19 69 3d c5 e6 b2 be
       -0.23104666 -0.0029517603 0.056908794 -0.34941688
000370 21 9c ee 3c f4 92 30 bd 2d 0f f5 be 04 1b 5f be
       0.029127182 -0.043108895 -0.4786314 -0.2178765
000380 00 04 ba be 72 7a 9a be 15 05 3b 3e f7 5d b1 3d
       -0.36331177 -0.30171543 0.18263657 0.086605005
000390 e5 7f 88 3e d0 4b b8 3d c9 dc 0b 3e ab a1 ac bc
       0.26660076 0.08998835 0.13658442 -0.021073183
0003a0 b0 9d 9a bd 85 37 b7 3d b1 45 a7 bc 25 40 1c be
       -0.07549608 0.089461364 -0.020418974 -0.15258844
0003b0 83 a1 a8 bd 13 18 8f 3d cc 54 cc bc 04 2a 0a bd
       -0.08233931 0.06987014 -0.024942778 -0.033731475
0003c0 68 00 3f bd 01 be 83 be 61 f7 1a be 8e 32 0f be
       -0.046631247 -0.257309 -0.1513343 -0.13984129
0003d0 9e ba b0 bd c3 ca 8b be 99 bc 49 3e 1e 21 ce 3d
       -0.086293444 -0.27303132 0.1970085 0.1006491
0003e0 f0 49 da bc 3d 88 93 3c ed 86 1a 3c 6b 66 71 be
       -0.026646584 0.0180093 0.009431583 -0.23574226
0003f0 e1 35 03 bd e2 82 6d 3e 41 67 e9 3c a2 d8 8b 3b
       -0.032033805 0.23194459 0.028491618 0.004267768

S6.bias f4 [84]
000000 15 a6 35 3d c2 21 95 3e 5c fb fe 3d 40 c4 65 bd
       0.04434784 0.29127318 0.12450287 -0.05609536
000010 4a 01 b8 3e 95 46 e0 3e ae ad b0 3e 45 9a e9 3d
       0.35938483 0.4380385 0.34507507 0.11406378
000020 c9 b6 a2 3e 70 b2 1e 3e ba 23 4d 3e a3 ff 31 3e
       0.3178008 0.15497756 0.2003316 0.17382674
000030 e6 58 5c be 7a 56 93 3d ab b8 bf 3e 3c 17 e2 3e
       -0.21518287 0.071942285 0.37445578 0.4415835
000040 68 ee d8 3e 7e a5 f3 3e 89 29 f1 bc 32 c4 da 3d
       0.4236939 0.47587198 -0.02943875 0.106819525
000050 56 8f 23 be 97 10 e7 3e 77 5d b7 3c f6 0d bf 3e
       -0.15972647 0.45129845 0.022383435 0.3731534
000060 2e 8d b9 3e 9f 20 b7 3e 65 f4 d6 3e fc 3a 9f 3e
       0.36240524 0.35767075 0.41983333 0.3109969
000070 d9 ca b8 3e 05 e3 da 3e 64 c1 9e 3d 30 f9 6c be
       0.3609226 0.42751327 0.0775173 -0.23141932
000080 e3 a6 e3 3e c3 22 7a 3e ae 66 eb 3e ca 6d ff bd
       0.44463262 0.24427323 0.45976776 -0.124721125
000090 fb d6 47 3e ac 38 0f 3f f2 dd 0e 3e cc 86 13 3f
       0.19515602 0.5594585 0.13951853 0.5762756
0000a0 8a f6 d1 3e f8 79 2b 3f 29 5b b9 3e 48 25 ad bd
       0.41008407 0.66982985 0.36202362 -0.084543765
0000b0 2d 62 7b 3e ec 30 9c 3e 0c 33 c6 bd 70 b3 e1 3e
       0.2454917 0.30506074 -0.09677705 0.44082212
0000c0 95 fd 25 3e 17 d0 5c be 68 f9 8a 3e 1b 4f 93 3e
       0.16210015 -0.21563755 0.27143407 0.2877129
0000d0 09 07 26 3f 1e b5 47 3e ad a2 f2 3e f4 17 d7 3d
       0.64854485 0.19502684 0.47389737 0.105026156
0000e0 d8 e4 f5 bc 38 08 2e be d9 0c b9 3e 22 64 6b 3e
       -0.030016348 -0.16995323 0.36142614 0.22987416
0000f0 02 d4 83 3e 36 6e e9 3e ac 5b 33 3e 18 12 a0 3e
       0.25747687 0.45591897 0.17515439 0.31263804
000100 68 81 18 3f 5d e1 29 3e 5f e6 6f 3e 2a 76 ea bc
       0.5957246 0.16589876 0.23427723 -0.028620798
000110 78 26 a7 3e 3c 64 48 3d 46 58 cf 3e d9 6c 82 3e
       0.32646537 0.048923716 0.40497035 0.2547367
000120 60 3d 96 3e ab 33 f0 3e 35 f9 c4 3d d1 8b 8a 3e
       0.293437 0.4691442 0.09617845 0.27059796
000130 dc df 0b 3f 75 9c b5 3e c9 61 56 be a7 83 39 bd
       0.5463846 0.3547093 -0.2093574 -0.04529157
000140 cb e3 49 bd 4c 5e 8c 3e 67 4d de 3d 78 d1 ac 3e
       -0.049289506 0.27415693 0.10854607 0.33753562

S7.weight f4 [10, 84]
000000 21 ed 48 3e 46 6a 5f 3e 85 c9 ae 3d d7 cf 30 be
       0.19621707 0.21817884 0.085345306 -0.17266785
000010 a4 17 67 3e f8 bd 1f 3f 60 23 c7 3e b3 f0 76 3e
       0.22567612 0.62399244 0.38894176 0.24115257
000020 be 8a 51 be c8 4b 06 bf 4e f4 d0 be 30 39 5e 3e
       -0.20463082 -0.52459383 -0.4081139 0.21701503
000030 7f 9c c1 3d 1f af 82 3e fe e5 ac 3e 03 8b c0 be
       0.094536774 0.25524232 0.3376922 -0.37606058
000040 07 65 38 3f e8 c7 d7 be 76 ae 1e 3e ed c3 83 3e
       0.72029155 -0.42144704 0.15496239 0.25735417
000050 60 e0 2b 3e e9 1a 21 3f 8e a0 57 3e 2a e8 af bd
       0.16784811 0.62931687 0.2105734 -0.08589204
000060 9e 38 a8 3d af b7 31 3f 9a 37 34 3f 72 e5 99 bc
       0.08213924 0.69420904 0.7039734 -0.018786166
000070 a8 d9 90 be f4 50 f2 3e 2d ca 02 be 40 87 8a 3e
       -0.2829106 0.47327387 -0.12772436 0.27056313
000080 28 b7 33 be 18 4a db 3e 58 c6 20 bd 7e 68 26 bd
       -0.17550337 0.42829967 -0.039251655 -0.040626995
000090 3d 62 5c be c8 9c a9 be b4 98 c0 be 95 82 f1 be
       -0.2152185 -0.33127427 -0.37616503 -0.4716994
0000a0 1f 6f 1b be 76 0f b1 3e c5 3d 5f be 63 f0 49 3e
       -0.15179108 0.34582108 -0.21800907 0.19720607
0000b0 30 18 2e 3f 99 24 36 3e e0 07 e1 3e 12 8c 81 be
       0.6800566 0.17787398 0.4395132 -0.25302178
0000c0 d4 a9 e1 3d 60 aa 94 ba 21 92 93 3e eb f0 1e bf
       0.1101872 -0.001134228 0.28822425 -0.6208636
0000d0 99 d5 cf 3e 8b bb 7b be 62 58 e8 3d 8f 22 88 be
       0.4059265 -0.2458326 0.11344983 -0.26588866
0000e0 66 ff 87 bd eb 15 73 3e 9f 2d 58 bd 96 a4 51 be
       -0.0664051 0.2373883 -0.052777883 -0.20472941
0000f0 8d 88 43 3e 2a d3 a8 be be c6 90 3e 30 14 1c 3f
       0.19095059 -0.32973605 0.28276628 0.60968304
000100 e6 83 17 3d 9e a6 11 3d e4 45 21 3f 7e d2 f8 3e
       0.036991023 0.03555929 0.6299727 0.48598093
000110 fb 75 d2 bc 4f 8f 4d 3e bc 87 36 be ef 24 d0 be
       -0.025691023 0.20074199 -0.17825216 -0.40653178
000120 16 d1 92 3e cd b8 7b be ab 20 d6 bd 63 29 5f 3d
       0.28675145 -0.24582215 -0.1045545 0.05448283
000130 8d 6f 20 3f 51 48 46 be 20 c6 b8 bc 5f dd ba bd
       0.62670213 -0.19363524 -0.02255541 -0.091242544
000140 84 b9 76 3e 28 f4 c8 bd f2 e9 98 3e 8b a2 c2 be
       0.24094206 -0.09812194 0.29865986 -0.38014635
000150 b0 e2 ca 3e 02 c9 c4 be 74 ea a6 3e d1 db e9 3e
       0.39626074 -0.38434607 0.3260075 0.4567552
000160 b9 8b a5 3e 80 1a a5 be 6f 68 72 3d db 54 7e 3d
       0.32333162 -0.3224678 0.059181627 0.062092643
000170 14 c9 af be 8d dc 06 3e 7c d7 e0 be 66 0d c3 bd
       -0.34333098 0.13170071 -0.43914402 -0.0952404
000180 60 aa c0 bb 61 0e d5 3d 22 2e df 3d 7e ee 57 3e
       -0.0058796853 0.10403133 0.10897471 0.21087071
000190 55 64 4c bf 9a 19 d4 be 14 4f 5d be 17 6e f4 bb
       -0.79840595 -0.41425782 -0.21612197 -0.007459413
0001a0 e6 80 16 be d1 f8 01 3f f6 82 9e be 13 35 d3 be
       -0.14697608 0.5077029 -0.3095929 -0.4125143
0001b0 f4 db 0d 3e 0b 58 4a be 09 6b 3c 3d a0 93 26 be
       0.13853437 -0.19760148 0.046000514 -0.16267252
0001c0 23 07 08 3f fe 4d a8 be 28 88 d6 3e 55 3f 0f be
       0.5313589 -0.32872003 0.41900754 -0.13989003
0001d0 ab 3c 08 be 01 0a 0a 3f 37 fc 5a 3e 41 77 bf bc
       -0.13304393 0.53921515 0.21385275 -0.023372294
0001e0 f2 ee 8b be 78 e8 2c bf 55 f5 85 bd 73 1b a7 be
       -0.27330738 -0.6754222 -0.06540934 -0.3263813
0001f0 5a 20 05 bd eb 82 89 3d e9 81 53 bf 3a a9 23 be
       -0.032501556 0.06714424 -0.826201 -0.15982524
000200 8d 5f c0 be 6d 1a 15 bf 88 f2 09 3f c2 c7 c1 be
       -0.375729 -0.5824345 0.538857 -0.37847716
000210 98 5e e0 3e ff 2a 2e bd 07 38 af be f7 d3 da 3e
       0.4382217 -0.042521473 -0.34222433 0.4273984
000220 19 63 00 be 39 b6 ac bd e0 df af 3e 47 50 3b bd
       -0.12537803 -0.08433194 0.3435049 -0.045730855
000230 1d cf b1 bb 6f 93 c5 be 6e 98 01 bf 5f 7c 9e be
       -0.005426301 -0.38589045 -0.50623214 -0.30954263
000240 7f 40 8d 3e 52 50 c2 be 83 4f 1c 3e 44 de 97 bd
       0.2758827 -0.37951905 0.15264706 -0.07415441
000250 21 23 8b be 12 57 22 3f d1 65 0b 3f 95 27 b0 be
       -0.2717524 0.6341411 0.54452235 -0.344052
000260 81 8d a1 bd 4a 08 8c 3d 18 48 c0 be 26 4f 0f 3e
       -0.07888318 0.068375185 -0.37555003 0.13995036
000270 7a 7f 09 3f 1e d6 f9 be 45 31 94 3e 06 59 e2 be
       0.5371014 -0.4879617 0.2894384 -0.44208544
000280 21 23 bb be a2 6c bf bd 61 73 33 3e f8 5f 99 3e
       -0.3655024 -0.09346892 0.17524482 0.2995603
000290 5a 33 26 3e f3 18 d9 3e 0a 7c 41 bf 22 da 2e bf
       0.16230527 0.42401847 -0.75579894 -0.68301594
0002a0 43 78 62 be 55 ce 81 3d b0 85 6a 3e f4 9d 6a 3e
       -0.22116189 0.06338183 0.2290256 0.22911817
0002b0 2c 28 91 bd 20 c1 18 3f 37 79 0a 3f 4b d2 93 3e
       -0.0708774 0.59669685 0.5409121 0.28871378
0002c0 b0 c1 5e 3f 51 7b a0 bd 0f 94 71 3e b4 09 77 3e
       0.87014294 -0.07836021 0.23591636 0.24124795
0002d0 dc ef f3 bd 7f 50 88 3e 82 38 78 3d 70 01 0a bf
       -0.11910984 0.26623914 0.060600765 -0.53908443
0002e0 05 86 8b 3e ae 02 b6 be e6 cf 0a 3e 3a 7b 2b 3d
       0.27250686 -0.3554892 0.1355587 0.041865565
0002f0 f6 5e 3f be f5 c1 1a 3f 42 6a 28 be fb 0e f8 be
       -0.18688568 0.60452205 -0.16446784 -0.4844893
000300 ea 38 3a 3d b4 0f cb 3e ae 9f 70 be 26 59 e5 be
       0.045464434 0.39660418 -0.23498413 -0.44794577
000310 78 5e 09 3f 83 55 07 3f 8d 52 de 3e 1b 57 29 3e
       0.5365977 0.52864856 0.43422356 0.16537134
000320 df 85 3c bf 5f e0 1a bf 6e b6 81 3e 69 c8 e8 3b
       -0.7364177 -0.60498613 0.25334495 0.007103969
000330 b2 b8 d3 be 02 c9 13 be 17 d1 90 3d 92 cd c5 bd
       -0.4135185 -0.14432147 0.07071131 -0.0965835
000340 a4 b5 22 3e cf 0c c1 3e 5f 21 c3 3e 21 08 d9 bd
       0.15889603 0.37705085 0.38111398 -0.105972536
000350 c1 9a 03 3f 38 dc 94 be 73 1f 30 bf bb e2 05 be
       0.5140801 -0.29074264 -0.6879799 -0.13074772
000360 13 c7 97 3e a9 b9 81 3d af d4 91 bd fb 2d 9a 3c
       0.2964407 0.0633424 -0.07120644 0.018820753
000370 fe 53 df 3e 87 b7 4c 3e a9 64 2e 3e c8 63 97 3e
       0.43618768 0.19991885 0.17030586 0.29568315
000380 86 97 bb 3c fb f7 bf 3d 5c 04 ae bd 65 66 ba be
       0.0228994 0.093734704 -0.08496925 -0.36406246
000390 ce cd 39 be 97 bc a9 be 17 9c 32 bd 5b d9 4e 3f
       -0.18144915 -0.33151695 -0.04360589 0.8080041
0003a0 d3 35 02 3f 16 e8 d7 be b2 43 bb be de 56 a4 be
       0.5086338 -0.42169255 -0.36575085 -0.32097524
0003b0 cf e5 c9 bd ba 6c 94 3e 75 a1 73 3e 2f 89 cd be
       -0.09858286 0.28989202 0.2379206 -0.40143725
0003c0 4e 79 15 3d e1 f8 37 3f 77 97 a3 3e e6 da 33 bd
       0.03649264 0.71864134 0.31951496 -0.04390993
0003d0 8f 68 9a 3e 77 7e 5f 3e 82 3e 88 bc b7 1f b2 3e
       0.30157897 0.21825586 -0.016631369 0.34789822
0003e0 4a 55 a8 bc 32 33 06 bf dd 6d 1e bf b7 1c 05 3f
       -0.020548481 -0.5242187 -0.6188639 0.5199694
0003f0 05 bb 2d 3e 43 4b 33 3f 3e e4 8e 3e 46 86 8c be
       0.16965874 0.70036715 0.2790851 -0.27446193

S7.bias f4 [10]
000000 91 0e c9 3e e7 ab 3f bf 61 0f ca 3e 86 6f 11 3f
       0.39268926 -0.7487168 0.39464858 0.56810796
000010 77 34 bf 3c a8 9c cb bc 90 53 0f 3f 41 85 15 be
       0.023340447 -0.024854973 0.5598688 -0.14601614
000020 74 0c d6 be 25 12 fe be
       -0.41806376 -0.49623218
